cultural_chatbot_model/cultural_tagger/best_checkpoint_tagger.pt (torch, 603410 bytes, 12 tensors)

hidden_layer1.weight f4 [128, 384]
000000 33 6b bf bd a4 b9 50 bc 12 14 ae bc 29 70 2f 3d
       -0.093466185 -0.012739573 -0.021249805 0.042831574
000010 cd 02 40 3d 7a a3 0f 3d c1 82 8c bd b6 b0 fd 3c
       0.04687767 0.035068013 -0.06860877 0.030968051
000020 bd ed db 3c 1d c4 72 bd d5 0b 6d 3c 7d 43 f3 3c
       0.02684676 -0.05926906 0.014468153 0.029695267
000030 08 72 3f bd 0e 3f f6 bc 39 ea a0 bd 55 c3 b9 3d
       -0.046739608 -0.030059364 -0.078571744 0.0907046
000040 59 cf dd bc b1 e2 a3 3d ae 82 2d bd 58 82 91 3c
       -0.02707641 0.08002222 -0.042360954 0.017762348
000050 17 ab 36 bb 49 9f 40 3c a5 ff fb 3a 55 67 54 3b
       -0.0027872974 0.011756727 0.0019225968 0.0032410224
000060 44 36 3c 3b be 68 6f 3d a9 c5 44 bd c1 6e 48 bd
       0.0028718868 0.0584495 -0.048040066 -0.04893375
000070 4d 87 52 3d 2a 8c 49 bd 5a 4b ec 3c ba e2 df bd
       0.051398564 -0.049205936 0.028844524 -0.109319165
000080 59 44 9c 3d a6 bd 4a 3d 5d a5 aa bc 95 4d ae 3d
       0.07630224 0.04949727 -0.020830804 0.08510891
000090 d6 d2 27 bd 92 bb 1e bd 4c 69 8b bd d3 6f 86 bc
       -0.040972553 -0.0387531 -0.06807193 -0.016410744
0000a0 b7 3f 9a 3c d3 d3 67 bd 1e 22 31 bd c2 7a b5 39
       0.01882921 -0.056598496 -0.043245427 0.00034614472
0000b0 40 79 84 bd ca 22 3b 3d 03 df 8f 3d fd 8a 8f bd
       -0.06468439 0.045687474 0.07024958 -0.07008932
0000c0 f7 12 18 3d 98 f2 ee 3a fe e9 d3 bd 5b dd 2e bd
       0.03712746 0.0018230258 -0.10347365 -0.04269157
0000d0 6e 99 3e bd 33 7b d6 3c 9e 2a 6f bd 43 8d 4e bc
       -0.04653304 0.026181793 -0.058390252 -0.012606922
0000e0 93 28 fc 3b 1f b1 f9 bc ab bd b6 bd a7 4d b7 3b
       0.0076952665 -0.030479966 -0.08922895 0.0055939737
0000f0 9c 36 91 bd 2e 4b 8e 3d 25 b1 88 bc 62 72 e9 bc
       -0.07090494 0.06947933 -0.016686032 -0.028496925
000100 01 35 04 bd e7 e2 83 3d f9 31 7a 3b 67 e7 ae 3c
       -0.03227711 0.064397626 0.0038176759 0.021350576
000110 a3 2c a6 3c 89 01 3b 3d af a2 7b bd ca 34 10 bd
       0.020284956 0.04565576 -0.061434444 -0.035206594
000120 f1 fd f7 bb c4 98 fb 3c 73 bc d3 bc 01 fc 56 3d
       -0.007568114 0.030712493 -0.025846696 0.052486423
000130 0d 0f 0b 3d b9 8e 0b 3c c5 45 13 3c f7 58 0f bd
       0.0339499 0.008517914 0.008988802 -0.034996953
000140 b8 d9 c5 3b 1c eb a9 3d 64 ef 03 3c 50 92 87 3c
       0.006037917 0.08296797 0.008052681 0.01654926
000150 24 b8 21 bd 54 92 d8 3c 8d 6e 0e 3e 48 0d 44 3d
       -0.03948225 0.026436962 0.1390936 0.04786423
000160 79 ae 80 bc 6d 36 1f 3d 25 1f db 3d 4f 66 97 3d
       -0.015708195 0.038870264 0.106993 0.07392561
000170 00 ae 08 3d 33 19 32 3c 3a 60 31 3d 92 cd 0e 3d
       0.033369064 0.010870266 0.04330466 0.034864016
000180 c8 f2 1d bc 8f b7 43 bd 66 91 fa 3c 08 50 81 3d
       -0.009640403 -0.047782477 0.03058691 0.06314093
000190 b8 32 15 3d 7f 67 fb bc 3f 68 00 bd 03 a8 56 bd
       0.036425322 -0.030689 -0.031349417 -0.052406322
0001a0 57 27 e3 bc c2 fb ad bd 28 ec cc bb 86 a0 f2 ba
       -0.02772872 -0.084952846 -0.006253738 -0.0018510974
0001b0 55 3e c0 bd 41 a7 88 3d 81 77 f3 bc 99 83 da bc
       -0.09386889 0.06672526 -0.02972007 -0.026674079
0001c0 27 d8 83 bd 3c 16 7a bd 40 2f fa bd d0 2e c0 bc
       -0.06437712 -0.06105636 -0.122160435 -0.023459822
0001d0 74 49 9b bd 95 fe 41 3d e2 47 07 bd cb 6f 3b bd
       -0.075823694 0.04736193 -0.033027537 -0.04576091
0001e0 0c af 81 3d ff 53 0d 3d 9c 4a 7c 3b 3c c5 a0 bc
       0.06332216 0.034503933 0.003849662 -0.019625299
0001f0 f4 c3 43 bd 06 75 94 bd c7 1f 9d bc 1b ce 37 bd
       -0.047794297 -0.07248883 -0.019180192 -0.044874292
000200 65 4f 9f 39 34 f3 6a 3d 03 c6 98 b9 f6 cd 22 3d
       0.00030385997 0.057360843 -0.0002913923 0.0397472
000210 0b 6c b5 bd 2c 02 0b bb 26 63 a1 3c d6 3f bc bb
       -0.08858498 -0.0021211011 0.019700598 -0.0057449145
000220 53 70 81 ba 2b 8f 05 bd 6f 3e 04 bd cf 0d 24 3d
       -0.0009875394 -0.03260724 -0.032286104 0.04005223
000230 43 48 3f 3d 1b 9b 28 bd 26 6b 64 bd 2c 21 cc 3c
       0.046699774 -0.041163545 -0.055766247 0.024918161
000240 1a b0 05 bc 46 16 91 3b a0 cc 06 3d c8 26 11 3d
       -0.008159662 0.004427704 0.03290999 0.035437375
000250 4c 13 cc 3d 49 cd ca bb d0 54 a4 3c f2 a3 cb bc
       0.09964618 -0.0061890227 0.020059973 -0.024858449
000260 42 85 2c 3d 07 de 77 bd fb dc 10 bd e0 b9 d5 3d
       0.042119272 -0.060514476 -0.035366993 0.104358435
000270 34 2b 28 3d 36 d2 1b bd a8 51 a2 3c e8 4b 84 bd
       0.041056827 -0.03804227 0.019814327 -0.064597905
000280 db 16 cc 3d 8a 9e fc bb be d3 c5 3b fc eb 0e 3c
       0.09965297 -0.007709329 0.0060372045 0.008723255
000290 90 48 91 3c c4 29 94 3b 78 27 90 bb 6d 24 ef bd
       0.017734796 0.0045215804 -0.0043992363 -0.116768695
0002a0 6e 3b 96 3c 41 2c 03 bd c3 c4 76 3d d3 7e 2e 3d
       0.018338885 -0.032024626 0.06024624 0.042601418
0002b0 4d 70 36 3d 17 2f 11 3c 7e 17 4d 3c 1c 0f b2 ba
       0.044540692 0.008861325 0.012517808 -0.0013584825
0002c0 82 84 23 3c 18 8d bb 3c ad f7 37 bc 0a 5b 25 3b
       0.009980323 0.022894427 -0.011228484 0.0025231265
0002d0 5b 84 88 3d 72 47 5a bd 8f 95 86 3c e1 25 9a 3c
       0.0666587 -0.05329079 0.016428737 0.01881689
0002e0 f1 4b 16 bd 88 7a c6 bc 80 98 2c bd 24 60 12 3c
       -0.036693517 -0.02422835 -0.042137623 0.0089340545
0002f0 90 47 c0 bd 04 f2 81 3d 43 7e 83 bd e8 3c 82 3d
       -0.093886495 0.06344989 -0.06420567 0.06359273
000300 fa de b2 bd f6 8f 25 bd 27 06 da bc c2 3d 2b 3c
       -0.08733936 -0.040420495 -0.026614262 0.010451736
000310 d5 d5 dd 3c 2d f1 ad bc c0 04 1d bd c0 be 8f 3d
       0.027079502 -0.021233166 -0.038334608 0.070188046
000320 3a 2b a7 3c ed 84 a4 3d 1e 51 e5 3b 63 df 7f bc
       0.020406354 0.08033166 0.0069981953 -0.015617224
000330 e3 57 9c bd 4e 47 79 3c 33 fb 31 3d ac d4 5d bd
       -0.076339506 0.015214754 0.043452453 -0.054157898
000340 e8 e1 1b bc 5c b4 01 3d d6 1a 0e bd 68 67 04 bc
       -0.0095143095 0.031666145 -0.03469356 -0.008081295
000350 df 10 08 3d 4a ef 4b bb 07 05 49 bd b6 21 ab 3d
       0.033219215 -0.003111797 -0.04907706 0.08356039
000360 76 53 d3 bc 9d 4d 1a 3d 79 02 ef 3c 25 94 e4 3c
       -0.025796633 0.037671674 0.029175984 0.027902672
000370 22 86 84 3d ba bb f2 3c ab 43 64 3c 40 23 72 bc
       0.06470896 0.02963053 0.013932149 -0.014778912
000380 00 2f d4 bb ac a7 8e bd 42 cc 7b 3d 55 51 c8 3c
       -0.0064753294 -0.069655746 0.061474092 0.024452845
000390 d8 aa 20 bc ef 8d b3 3c a0 41 61 bd fc 0f 20 bd
       -0.009806357 0.021918265 -0.054994226 -0.039077744
0003a0 8f 89 c8 bb 98 6f 7c 3d e6 0a 1f 3d 48 1e b1 3c
       -0.006119914 0.06162986 0.038828753 0.021620885
0003b0 bb 9b 72 bc bb 2d b9 bc a0 0d 94 bd 68 77 13 3c
       -0.014807637 -0.022604814 -0.07229161 0.009000637
0003c0 aa 03 8d 3d fb 74 30 bb a6 8c 00 bd cf 93 94 bb
       0.068854645 -0.0026925195 -0.031384133 -0.0045342217
0003d0 95 ac 64 3c 07 cd 58 3c 24 e8 ec bc 50 7c b3 3d
       0.013957162 0.013232476 -0.028919287 0.08763945
0003e0 57 94 ec bc d7 cf 5e bc f0 aa 04 3d 33 45 36 3d
       -0.028879328 -0.013599358 0.03238958 0.044499587
0003f0 fd 32 f4 3c 59 49 e1 bd 74 b1 27 3d a4 37 e2 bd
       0.02980947 -0.11000318 0.040940717 -0.11045769

hidden_layer1.bias f4 [128]
000000 57 ab 2f 3d 92 e2 6b 3d 9a 2b 5f 3b 88 86 3b 3d
       0.04288801 0.05758912 0.0034053088 0.045782596
000010 5d f5 18 3d 4b 1c 05 3d e2 eb 85 3d 12 4d 11 3d
       0.03734337 0.032497685 0.06539132 0.03547389
000020 44 dc 71 3d 50 7d 90 3d 7e d1 e0 3b 88 fe 08 3b
       0.059047952 0.070551515 0.006860911 0.0020903666
000030 d4 d4 4f 3c b3 32 64 b8 74 8c 9c 3d 99 45 85 3d
       0.0126850195 -5.4406653e-05 0.07643977 0.06507415
000040 84 5a 8e 3c 04 dd 96 bb bf be 86 3d 92 5b b2 3c
       0.017377146 -0.004603984 0.06579351 0.02177218
000050 41 f6 f7 3c e1 ea cb 3c b9 fc f3 3c 80 a2 95 3d
       0.03026879 0.024892272 0.029783593 0.07306385
000060 ca 95 33 3d 03 a2 86 3d 20 16 12 3b 63 ac 18 3d
       0.04384402 0.0657387 0.002229102 0.037273776
000070 e3 53 59 bc 87 6b 66 bd f6 a5 19 3d 0c 9d 18 3d
       -0.013264629 -0.05625489 0.03751179 0.037259147
000080 41 68 f2 3c 3b 50 e0 3c 0f 28 41 3d 5d c1 5f 3d
       0.029590728 0.027382007 0.047157343 0.054627765
000090 9f 07 93 3d 2a dd 70 3b a8 8c dc bc 03 4f 8a 3d
       0.07179188 0.0036752918 -0.026922539 0.067533515
0000a0 f0 20 40 bb 38 d5 54 3b 35 08 14 3d 1f 82 60 3d
       -0.0029316507 0.003247572 0.03614064 0.054811593
0000b0 5c 4f 93 ba 13 af 37 3d 57 04 e6 3c 06 07 95 3d
       -0.0011238861 0.0448447 0.028078241 0.0727673
0000c0 e3 10 96 bb 6e 7b 90 bc 7f 89 0d 3c 88 16 02 bc
       -0.00457965 -0.01763698 0.008638739 -0.007939942
0000d0 9f 4b f0 3c 12 69 f1 bb 28 a3 a1 3d 19 e7 01 3d
       0.029332934 -0.0073672617 0.07892448 0.031714533
0000e0 f0 9f f1 39 76 01 64 bd 42 9c c4 ba dd 4d 33 3c
       0.00046086265 -0.055665456 -0.0015000182 0.010943857
0000f0 74 1a 37 bd 8f 36 91 3d 02 03 77 3b 91 a1 40 3c
       -0.044702962 0.07090484 0.0037691002 0.01175727
000100 b2 ef 30 3d 9f b2 aa 3c f8 4b 1a bd 43 22 48 3c
       0.04319734 0.020837126 -0.037670106 0.0122152
000110 83 82 fe 3c b8 68 6d 3d fa 29 7e 3d c8 18 a0 3c
       0.031068092 0.057961196 0.06205175 0.019543067
000120 96 e9 e4 3c f5 0e 33 3c a7 c2 96 3c 73 51 1d 3b
       0.027943414 0.010928859 0.018403364 0.0024004846
000130 c3 3a 26 3d 99 33 ff 3c 3a 5c 1d 3d 0b b7 15 3c
       0.040583383 0.031152533 0.038418032 0.009137879
000140 f5 93 35 bd 5b 6a b0 bc cd aa 3d 3d 84 f6 94 3c
       -0.044330556 -0.02153509 0.046305466 0.018183954
000150 07 9b 81 3c 52 44 81 3c 4b e1 d1 3b f8 91 0d bd
       0.015820993 0.015779648 0.006405031 -0.034563035
000160 3e 0d 04 3d fc a6 39 3d 82 02 77 3d 4e 26 0e ba
       0.03223919 0.045325264 0.060305126 -0.0005422578
000170 43 84 d8 3c ed 99 b2 3d bc 4f ba 3c 7e 6e 09 3d
       0.026430255 0.08720765 0.022743098 0.03355264
000180 27 22 dc bc ec 29 42 3d 18 77 6a 3d e8 e2 2a 3c
       -0.026871754 0.04740326 0.057242483 0.010430075
000190 07 be d2 bc e6 fd 62 3d f4 87 f5 b8 6e f2 2b 3d
       -0.025725378 0.055417918 -0.000117078336 0.041979246
0001a0 e7 9c 04 3d df 42 32 3c 2b 15 f6 3c 08 48 95 3b
       0.032376196 0.010880201 0.03003939 0.004555706
0001b0 31 78 2f 3d b4 24 3e bd 4a 5e 9b bc 66 9d cb 3b
       0.042839233 -0.04642172 -0.018965859 0.0062138317
0001c0 fa 47 17 3d af 8b 0e bd 22 bf 1b 3d 46 1f 31 bc
       0.036933877 -0.03480118 0.038024075 -0.010810679
0001d0 29 e3 16 3c d3 fa 74 bb a7 3c ba 3c db 7c 0b 3d
       0.009209433 -0.0037380948 0.022734 0.03405462
0001e0 1d 2b 53 bd ea aa 6e 3d 30 77 84 3d f1 6f 87 3d
       -0.051554788 0.058268465 0.06468046 0.06613148
0001f0 32 13 0c 3d 77 a0 6e 3d b3 a6 5b 3d 98 b7 0a bc
       0.034197994 0.0582585 0.053625774 -0.008466624

hidden_layer2.weight f4 [4, 128]
000000 3a fa 09 3e eb fc d1 3d bc 3e d8 bd 7c ac 97 3d
       0.1347436 0.102533184 -0.10558841 0.07405946
000010 7c f1 96 bc 9d 47 2a bc 1b 61 78 3c 89 1f 0c 3e
       -0.018425696 -0.0103930505 0.0151598705 0.13683905
000020 ea b0 99 bd c7 2a c7 bd 8a 7c 05 3d 9c c0 b9 bd
       -0.07504447 -0.09724956 0.032589473 -0.090699404
000030 9e 0a f8 3b 01 bc 14 3e b9 53 17 be d1 36 3e bd
       0.007569625 0.14524843 -0.14778031 -0.046438996
000040 9d d6 d3 3c a7 d2 08 3d 7b 3e f2 bd 25 e8 20 3e
       0.025859172 0.03340402 -0.118283235 0.15713556
000050 f1 2b 22 3e 59 c7 20 be 8f a0 17 be c6 8f 03 be
       0.15837075 -0.15701045 -0.14807342 -0.12847814
000060 cb 33 a7 3d 18 c7 3a 3d 05 4a 42 be eb 0b 01 3e
       0.081641756 0.045600027 -0.18973549 0.12602203
000070 2c 60 4b 3d 9d 86 cc 3c 79 2f 21 bd 0d 17 37 3b
       0.049652264 0.024966532 -0.039351914 0.0027937323
000080 85 eb 36 be 6c a1 2b be f4 d5 db 3d b7 f1 fc 3c
       -0.17863281 -0.16760796 0.10734168 0.030876977
000090 93 b0 1f be d3 03 8e 3d 7c a5 1a be 9d e4 07 be
       -0.15594701 0.06934323 -0.1510219 -0.13270803
0000a0 33 62 28 3e bd 56 1f be 1e fe 4b bd 2b f1 5a bd
       0.1644371 -0.15560432 -0.049802892 -0.053452652
0000b0 86 1e 8e bc 20 07 b0 bd 6e 46 1a be e8 4b fa bd
       -0.01734854 -0.08595109 -0.1506593 -0.12221509
0000c0 e9 b7 d9 39 b8 19 17 be 58 df cc 3c b0 17 66 bd
       0.0004152649 -0.14755905 0.025008842 -0.056174934
0000d0 ab ef 18 3e 52 1c 27 3e 44 6e 22 be 16 25 d9 3d
       0.14935176 0.16319397 -0.15862375 0.10602777
0000e0 b3 00 23 be c5 01 17 3d 8a 1d 81 3d ff ea 95 bd
       -0.15918235 0.036866922 0.06304462 -0.073202126
0000f0 2e 0e 37 bd f1 6f 8a 3d 00 6d ce bd ba fc d4 bd
       -0.044691257 0.067596324 -0.10079384 -0.10399766
000100 7e 67 39 bc 5b 17 e6 bd 06 c5 46 3d 47 87 7d 3d
       -0.011316178 -0.112349235 0.04852774 0.06189659
000110 a9 84 9b 3c 4f d4 6a bd 07 82 e0 bd 15 67 21 be
       0.018984156 -0.05733138 -0.10962301 -0.15761979
000120 ab 34 04 be 60 a5 ae bd 67 e3 85 3d 90 6b 1c be
       -0.12910716 -0.085276365 0.06537514 -0.15275407
000130 89 fe 21 be 28 f5 19 3e 3f de a3 3d 46 b8 a3 3d
       -0.15819754 0.15034926 0.080013745 0.07994132
000140 ee 5f 96 bd 11 5f 94 bd 51 9e 00 bd 27 5d 14 3e
       -0.07342516 -0.07244695 -0.031400982 0.1448866
000150 aa 33 ce 3d 43 5a 00 bc 32 39 34 3e f4 69 ab 3a
       0.10068448 -0.00783402 0.17599943 0.0013077841
000160 10 65 48 3d ef ab 13 be 20 3d 94 bd f9 b6 0f 3d
       0.048924506 -0.14421056 -0.07238221 0.035086606
000170 0b a6 92 bc 00 c5 18 be 81 b2 0b 3c 31 ec d6 3d
       -0.017901441 -0.149189 0.008526445 0.10494269
000180 33 20 8c bd 7d aa ee bd 5d 09 0b be 1b d6 95 bc
       -0.06842079 -0.11653612 -0.1357779 -0.01829057
000190 0d a5 ac bd 58 68 f7 3d c8 f3 bf bd e2 84 2c be
       -0.084299184 0.12080449 -0.093726695 -0.16847566
0001a0 a4 f9 98 bd 6c 01 d4 3a a1 ca 2c be 15 96 20 be
       -0.0746949 0.001617474 -0.16874172 -0.15682252
0001b0 c1 fd 7a bc cf c2 7f 3d 50 98 90 bd c2 3a af 3d
       -0.015319289 0.062441643 -0.07060301 0.08556129
0001c0 60 96 37 be 50 2e 5c 3d b1 1d 18 3e f0 ad 49 be
       -0.17928457 0.053755105 0.14855076 -0.19695258
0001d0 88 42 a5 3d fa 44 e4 bd 1c cb 10 be 29 15 75 3d
       0.080693305 -0.11145969 -0.1413998 0.059834633
0001e0 a7 9e 1a bd d9 53 03 3e 72 1a a1 3c 34 61 74 3d
       -0.03774896 0.12824954 0.01966593 0.059663013
0001f0 b8 75 80 bd 40 6f b3 bd 0b b5 8e bd 7c 3d ee bc
       -0.06272453 -0.08761454 -0.06968125 -0.029082052
000200 17 ce 0e be 06 0b 0a bd 41 01 fb 3d 27 d8 06 be
       -0.13945805 -0.03370192 0.122560985 -0.13168393
000210 ae 13 18 be 2f 55 26 be b6 b7 0b be 60 22 fe bc
       -0.14851257 -0.16243432 -0.13644299 -0.03102225
000220 a3 4e 22 3e 18 74 d9 3d 7c d7 1e 3d 52 72 59 bc
       0.1585031 0.10617846 0.03877972 -0.013271885
000230 cc f2 04 be b5 0f f4 bd 9c 5a d0 3d 27 fb 11 bc
       -0.12983245 -0.119170584 0.10173532 -0.008909977
000240 c9 a0 35 bd 02 57 11 bd f9 61 46 3d 0a 4a 36 bd
       -0.04434279 -0.035483368 0.048433278 -0.044504203
000250 ea 73 ff bb 57 24 e7 bc f6 5c c1 3d 66 d7 d6 3d
       -0.0077958005 -0.02821557 0.09441559 0.10490303
000260 53 8d ca bd 2a 58 5b bd d9 03 0f 3e 05 22 46 3c
       -0.09890237 -0.053550877 0.13966312 0.012093072
000270 23 92 92 bd d8 ec a9 3d 86 8b e7 bb ad b6 ee bd
       -0.071567796 0.082971275 -0.007066193 -0.116559364
000280 43 26 37 3e 2b 38 3e 3e 2d e2 da bd 9e b6 08 bd
       0.1788569 0.18576114 -0.10687671 -0.033377282
000290 80 99 fc 3c a6 5e b4 3b be d0 4c 3d fd 28 5a bd
       0.030834913 0.005504447 0.05000376 -0.053261746
0002a0 94 18 b1 bd d8 9c f2 3d c6 84 fe bd 3e 01 8c bc
       -0.08647266 0.11846322 -0.12427668 -0.017090436
0002b0 6c 0e 38 be 6f 57 03 be 4c df 40 3d 84 f1 0e 3e
       -0.17974252 -0.12826322 0.047087952 0.13959318
0002c0 bd 3b 15 be 55 4c 3c 3e c1 13 52 bd ac aa 41 be
       -0.1457357 0.18388493 -0.05128837 -0.18912762
0002d0 ea 98 06 be 12 c8 6c bd 6a 67 94 3d 0a e1 1f 3d
       -0.1314427 -0.05780799 0.07246287 0.039032973
0002e0 4f 96 d2 3a a9 1c b4 3d 48 4e c8 3d 2a 1f 18 3e
       0.0016066524 0.08794529 0.09780556 0.14855638
0002f0 2d 8c 88 3d 8f 34 e3 3c 9a 6a 41 3d e8 c8 16 be
       0.066673614 0.027735023 0.047220804 -0.14725077
000300 4f d9 f1 bd 06 dc 82 bd 8e e8 90 bd fe 75 f9 bd
       -0.118090264 -0.063896224 -0.07075606 -0.12180708
000310 2b af 71 bd a8 47 0f 3e e6 04 ce 3d 0f 3c 81 bc
       -0.059004944 0.13992178 0.10059528 -0.015775708
000320 4d 7c 84 3d 72 44 1a 3e d0 f1 21 be 4b cc a9 ba
       0.06469021 0.15065172 -0.158149 -0.0012954561
000330 d9 aa 99 3d bf 8a 09 be 92 e9 3c be 3a 0b 2a 3e
       0.0750329 -0.13431834 -0.18448475 0.16605845
000340 e5 6c 9c 3d 43 37 b8 bd b2 aa 55 3d bb 7f 80 bb
       0.076379575 -0.08994915 0.05216474 -0.0039214767
000350 11 2e a1 3d c6 ba 0d be da bb e1 bd 4c 09 8f bd
       0.078701146 -0.1384078 -0.11022158 -0.06984195
000360 02 63 25 bb 7b f8 d6 bc 22 6b 15 3e da 08 cf bd
       -0.0025236015 -0.026241532 0.14591649 -0.1010911
000370 9b aa 0d be c3 6c ca 3d 58 92 ff bd 1b b2 a1 bd
       -0.13834612 0.09884026 -0.12479085 -0.07895299
000380 bf b0 85 3b 19 68 79 3d 09 eb 8e 3d 37 1b 18 be
       0.0040799077 0.06089029 0.06978423 -0.14854132
000390 72 e0 fd 3d 2a e4 cc 3c a1 f1 02 3e e7 a7 3b bd
       0.12396325 0.02501114 0.12787487 -0.04581442
0003a0 2f c4 31 3e 9e f8 bf 3d ae d5 53 bc 2a e8 23 be
       0.17359994 0.09373592 -0.012929363 -0.16006532
0003b0 02 0f 11 bd 16 bb 90 bd 28 ff fc 3d 18 34 f6 3d
       -0.035414703 -0.07066934 0.12353355 0.12021655
0003c0 ab 4f 4e bb 9d e2 26 be ac 5a 28 be 40 eb f3 3c
       -0.0031480591 -0.16297384 -0.16440839 0.029775262
0003d0 76 8e 4c be 93 a5 0e 3e e4 10 02 3d e0 24 48 be
       -0.1997622 0.13930349 0.03175439 -0.19545317
0003e0 a3 dd 92 bd d9 5d 67 bd 7b c1 20 be f0 e7 2c 3e
       -0.0717118 -0.056485984 -0.15698807 0.16885352
0003f0 7b fd 15 be 63 48 14 3e 99 06 aa bd ee 21 47 bd
       -0.14647476 0.14480738 -0.0830204 -0.048616342

hidden_layer2.bias f4 [4]
000000 bc b0 d9 3b e3 84 a1 3d fb 22 27 3d 84 6f 00 bd
       0.006643383 0.07886674 0.040804844 -0.03135635

exp_avg f4 [128, 384]
000000 c8 18 05 38 f1 b9 2d 38 70 3f 43 36 e4 2d e5 b7
       3.173275e-05 4.1419586e-05 2.909419e-06 -2.7320297e-05
000010 2f 2c 9b b7 26 2c e5 b7 3b 18 8d 37 ac 20 1e 37
       -1.8498014e-05 -2.7319486e-05 1.6819793e-05 9.425141e-06
000020 b6 20 17 b7 7c b8 49 b6 ea d0 71 b7 a4 07 06 37
       -9.0079175e-06 -3.0058718e-06 -1.4413361e-05 7.988801e-06
000030 dc 12 64 37 ae cb d7 b7 2f fa 7f b7 33 bd 76 b7
       1.359425e-05 -2.5724843e-05 -1.5257435e-05 -1.4706794e-05
000040 68 8a 7e 37 3e a0 b7 b7 98 d7 5e 37 3d 06 43 b7
       1.5171805e-05 -2.1889919e-05 1.3282428e-05 -1.1624358e-05
000050 d6 3c cc 37 20 20 bc b6 ec 22 83 36 7f d9 43 b7
       2.4347024e-05 -5.6065765e-06 3.9081697e-06 -1.16735455e-05
000060 dd 74 a4 b7 ee cd 8c b7 70 11 cb 36 14 05 23 38
       -1.9604742e-05 -1.6785194e-05 6.0519014e-06 3.8866958e-05
000070 06 60 9c 37 59 d6 83 37 be a4 57 b7 2a 58 78 37
       1.8641364e-05 1.571623e-05 -1.2853356e-05 1.4802479e-05
000080 f7 73 e5 b7 93 9f 13 b7 fb f6 e3 36 9c 8c 95 b7
       -2.7352928e-05 -8.799037e-06 6.7938795e-06 -1.782766e-05
000090 8f df a4 b6 d7 62 0c b5 05 89 93 36 41 59 a7 37
       -4.9136065e-06 -5.2297895e-07 4.3968926e-06 1.9949513e-05
0000a0 17 3b 21 37 03 0f 98 37 06 22 02 38 19 4a 9f b6
       9.610106e-06 1.8126802e-05 3.1026102e-05 -4.7471954e-06
0000b0 c1 c9 84 37 c4 75 01 36 bd 4f 40 b5 1b 5d a3 37
       1.5829575e-05 1.9291047e-06 -7.164161e-07 1.947447e-05
0000c0 e3 f7 0e b6 5d dd e4 b7 d2 54 af 37 48 38 44 36
       -2.1303938e-06 -2.7282798e-05 2.0901123e-05 2.9239036e-06
0000d0 2b c5 fd 37 9f 1e 1b b7 1c f8 0b 37 c1 62 68 b7
       3.0251764e-05 -9.2458495e-06 8.342813e-06 -1.38512705e-05
0000e0 9a a5 d0 37 ae 3b 1c b7 8f 7e 8a 37 53 67 e0 36
       2.4872646e-05 -9.31222e-06 1.6509815e-05 6.6877487e-06
0000f0 b3 a3 e9 37 bb b6 5c b6 00 2b 30 b6 0f f3 00 b6
       2.7851993e-05 -3.2888918e-06 -2.6251073e-06 -1.9214965e-06
000100 5e 1b 0f 37 7c 6d 30 b6 da 34 90 36 29 03 f1 b7
       8.529836e-06 -2.6289772e-06 4.297687e-06 -2.873091e-05
000110 46 be 53 37 82 31 ee b6 e4 95 e4 37 59 1e 11 b7
       1.26208815e-05 -7.098716e-06 2.7249516e-05 -8.649739e-06
000120 f2 44 43 36 1d 88 cb 35 fc e1 aa 36 be bc 32 b6
       2.9097396e-06 1.5164293e-06 5.092703e-06 -2.663393e-06
000130 c7 0a f3 b7 f4 2a a6 35 4a c3 a7 b7 e8 95 4f 37
       -2.8972876e-05 1.2380465e-06 -1.999889e-05 1.2373064e-05
000140 41 72 a2 37 22 27 ac b7 ee a1 be 37 f0 36 fb 35
       1.9365109e-05 -2.052222e-05 2.272517e-05 1.8716946e-06
000150 23 2a d3 36 28 5b 51 37 c5 d5 bf b7 78 2f 80 b7
       6.2931954e-06 1.2478595e-05 -2.2868518e-05 -1.5280893e-05
000160 ff 76 41 36 45 a4 00 b7 44 3e 7f b6 b7 b0 bf b7
       2.8828506e-06 -7.6676415e-06 -3.8034204e-06 -2.2851264e-05
000170 15 02 f4 b7 12 a5 40 37 03 ed b2 b6 34 05 a7 b6
       -2.9088036e-05 1.1482525e-05 -5.332405e-06 -4.9775936e-06
000180 7c f0 11 b7 28 e6 af b7 0c d4 68 37 4f af 30 b7
       -8.698666e-06 -2.09688e-05 1.3877649e-05 -1.0531235e-05
000190 ae 3c f0 36 62 a5 02 38 a3 bf 5e 36 f0 0f 4f b7
       7.1596214e-06 3.114844e-05 3.3192125e-06 -1.2341872e-05
0001a0 39 e2 38 b6 28 07 ee 35 ff 5c c1 34 16 35 73 b5
       -2.7549816e-06 1.7734465e-06 3.6016715e-07 -9.0601804e-07
0001b0 ff 7e 39 b6 11 ad c2 b7 8d 63 73 35 50 43 15 36
       -2.764107e-06 -2.3207192e-05 9.066942e-07 2.2241911e-06
0001c0 48 7d 4b 36 93 88 be 37 41 09 ed 37 18 62 1d 37
       3.032228e-06 2.2713362e-05 2.825691e-05 9.3807685e-06
0001d0 33 3b 6d 37 fe 6a 19 b7 96 a5 b6 b6 5f 0b 0d b7
       1.4140084e-05 -9.144422e-06 -5.4432994e-06 -8.406902e-06
0001e0 0d 54 ac b6 cf 5a a0 b5 2e 5a d9 b6 ec 31 03 36
       -5.1357842e-06 -1.1947358e-06 -6.4776023e-06 1.954958e-06
0001f0 34 37 71 b7 cf 31 87 37 e4 92 c6 b6 97 6d b1 83
       -1.4377572e-05 1.6116448e-05 -5.91796e-06 -1.0428286e-36
000200 0e 10 04 b7 57 1f 77 37 fe 79 ed b6 15 93 3a b7
       -7.871551e-06 1.4729644e-05 -7.077352e-06 -1.1120709e-05
000210 2b 9d 5c 37 8c 65 9d 35 48 24 0f b7 d1 1a fe b7
       1.3149615e-05 1.1726966e-06 -8.531912e-06 -3.0291647e-05
000220 62 16 35 36 29 98 1c 37 b6 9a 4a 37 dd af 04 b7
       2.698413e-06 9.333752e-06 1.207616e-05 -7.9087595e-06
000230 8c 05 ae b7 f7 38 b1 b7 11 d9 2d b5 b5 aa de b6
       -2.0745e-05 -2.112657e-05 -6.4763395e-07 -6.6359885e-06
000240 8c 41 3f 37 a7 af 03 b8 52 c4 db b7 2c d9 99 b6
       1.13997485e-05 -3.1396423e-05 -2.6198253e-05 -4.5850375e-06
000250 3f 6f 4a 35 1d 5f 90 b5 81 92 c2 36 ee 27 eb b6
       7.541275e-07 -1.0756518e-06 5.798706e-06 -7.008194e-06
000260 04 68 88 37 59 02 91 37 6e 2c 0a b7 46 26 b9 35
       1.62609e-05 1.728644e-05 -8.235786e-06 1.3794713e-06
000270 2c b1 87 b7 50 2d 11 36 c9 8b 49 37 db e5 ed 36
       -1.6175756e-05 2.163306e-06 1.201308e-05 7.089909e-06
000280 7e e3 36 b7 da 18 a5 35 32 03 11 37 68 5c d1 b6
       -1.09010125e-05 1.2300691e-06 8.6434175e-06 -6.239443e-06
000290 b1 dc 6c 37 09 bf 1a 37 2f a9 da 36 c6 ff 3e 38
       1.411808e-05 9.223594e-06 6.516602e-06 4.5537738e-05
0002a0 23 67 cb 36 c3 28 e4 b6 2d ee 35 b7 f1 3e f9 36
       6.061878e-06 -6.799675e-06 -1.0843895e-05 7.4281056e-06
0002b0 0c 12 48 36 74 e4 ca 37 53 4b 3e 36 52 56 97 b7
       2.9812827e-06 2.4186658e-05 2.835605e-06 -1.8040799e-05
0002c0 5b 84 2a b7 2c 67 92 b6 6d 29 19 b7 23 69 ce b6
       -1.0163606e-05 -4.36315e-06 -9.129156e-06 -6.151518e-06
0002d0 7b e1 b6 b7 65 a5 02 b7 9f 02 32 b7 53 de a0 b7
       -2.1801088e-05 -7.787113e-06 -1.0610237e-05 -1.9177014e-05
0002e0 21 ca 00 37 78 57 20 b7 be 82 27 38 7a dc 96 35
       7.676456e-06 -9.557109e-06 3.9937666e-05 1.1240038e-06
0002f0 91 6d 04 38 3b b2 f1 b7 c9 7f e5 36 8c 1d 1e 36
       3.1573294e-05 -2.8812434e-05 6.839608e-06 2.3561033e-06
000300 58 cb 57 38 9d c0 5e b6 b6 c2 ea 37 e5 d4 5b b6
       5.1449373e-05 -3.3192694e-06 2.7985643e-05 -3.2757464e-06
000310 fe 67 ba b7 74 b1 88 37 c0 81 5b 37 58 1f 1c b7
       -2.2221353e-05 1.6295096e-05 1.3083627e-05 -9.305622e-06
000320 6e 72 fd 36 06 60 5c b7 46 92 e4 b6 4b 8b 8a b6
       7.553309e-06 -1.3135379e-05 -6.811958e-06 -4.1289363e-06
000330 ee a4 30 36 9c 4b 94 36 cd 80 a8 36 ab f6 a9 35
       2.6322045e-06 4.419546e-06 5.0217845e-06 1.2663271e-06
000340 22 b1 9a 37 14 ca 94 b6 b1 46 c3 36 f1 77 16 b7
       1.8440714e-05 -4.4342687e-06 5.8196824e-06 -8.968623e-06
000350 c7 2a 61 b7 4a e6 22 37 49 be f8 36 ef 7c ca b7
       -1.3421005e-05 9.709571e-06 7.413128e-06 -2.4138453e-05
000360 8e 85 5f 35 a9 98 fa b6 68 cd 24 36 29 31 10 37
       8.326832e-07 -7.4683526e-06 2.4557467e-06 8.594515e-06
000370 a3 13 27 b7 36 e2 7e b7 6e eb 0b b7 09 a0 fb 03
       -9.958548e-06 -1.5192249e-05 -8.339861e-06 1.4789196e-36
000380 cd 3e 92 b7 78 94 bb 37 de ea 51 36 58 74 10 b8
       -1.74338e-05 2.2361273e-05 3.1280138e-06 -3.444063e-05
000390 57 88 e4 b6 40 cc f5 b5 b4 c8 b1 b4 17 03 05 37
       -6.8108016e-06 -1.8313367e-06 -3.311485e-07 7.928137e-06
0003a0 c0 37 95 b7 47 a0 1e b7 d2 7a 74 b7 bf df c2 36
       -1.7788145e-05 -9.454851e-06 -1.457213e-05 5.807698e-06
0003b0 20 bb 37 37 7d 36 91 b6 17 e3 eb 36 c7 3f 84 b7
       1.0951218e-05 -4.32768e-06 7.0299825e-06 -1.5765325e-05
0003c0 de 4d 74 b7 f1 34 ab 37 29 2e 18 37 98 69 4f b7
       -1.4561663e-05 2.0409441e-05 9.0706535e-06 -1.2362747e-05
0003d0 d5 fc 71 b7 72 74 08 b7 c3 1b 6c b7 e8 b0 88 b7
       -1.4423586e-05 -8.133344e-06 -1.407316e-05 -1.6294842e-05
0003e0 07 82 59 b6 26 04 cd 36 6f 46 61 b7 df 61 d2 b7
       -3.2411206e-06 6.109959e-06 -1.3427444e-05 -2.5079526e-05
0003f0 ed b1 43 37 a0 54 81 37 c8 e7 cc b6 91 77 92 37
       1.1664332e-05 1.5417405e-05 -6.1066567e-06 1.7460234e-05

exp_avg_sq f4 [128, 384]
000000 df 0b bc 30 2a 5f ab 30 e1 79 98 2f 38 88 75 30
       1.3682174e-09 1.2468935e-09 2.773524e-10 8.932406e-10
000010 ce 34 30 30 79 ab 4f 30 35 d7 c8 30 75 31 54 30
       6.4103467e-10 7.554984e-10 1.4613081e-09 7.7195433e-10
000020 29 c7 02 31 f4 8e 25 30 61 54 81 30 5f 4c 73 30
       1.90307e-09 6.02298e-10 9.409967e-10 8.8511415e-10
000030 d4 a6 2c 30 1f 2b 8d 30 7e 9c aa 30 0a 9d 1b 30
       6.281031e-10 1.0271356e-09 1.2413606e-09 5.661184e-10
000040 51 59 12 31 50 fd c7 30 a5 e4 8f 30 7b a2 0f 30
       2.1296567e-09 1.4551151e-09 1.0469604e-09 5.2253996e-10
000050 1a 97 f0 30 17 55 fb 30 ca e5 02 30 d9 06 53 30
       1.7505244e-09 1.8286838e-09 4.7620274e-10 7.6771084e-10
000060 b0 bf 8c 30 2e 4a 76 30 b4 f0 87 30 f2 ad ac 30
       1.0240822e-09 8.9599694e-10 9.890955e-10 1.2564085e-09
000070 03 72 7c 30 c2 7b c3 30 8d e5 3f 30 e7 36 76 30
       9.1839086e-10 1.4223291e-09 6.9811606e-10 8.95723e-10
000080 35 25 b0 30 e3 b5 3b 30 96 1e 58 30 af b9 f2 30
       1.281626e-09 6.828868e-10 7.862381e-10 1.7660592e-09
000090 0e 34 c6 30 46 15 bf 30 a2 75 02 30 a1 cf 35 30
       1.4421191e-09 1.3903125e-09 4.746089e-10 6.6142475e-10
0000a0 79 8a 37 30 91 13 89 30 41 bc 98 30 d7 2d 49 30
       6.6771794e-10 9.973623e-10 1.111296e-09 7.3188516e-10
0000b0 87 f8 21 30 c5 24 53 30 b7 94 d4 2f 88 23 d6 30
       5.892464e-10 7.6813605e-10 3.8668244e-10 1.5580648e-09
0000c0 19 5b 85 30 a5 68 d6 30 98 61 14 31 65 27 93 30
       9.702915e-10 1.5600291e-09 2.159231e-09 1.0706854e-09
0000d0 b1 37 01 31 4d a2 34 30 72 91 bb 30 c4 aa 14 31
       1.8803628e-09 6.571426e-10 1.3647379e-09 2.1633904e-09
0000e0 6b ec 82 30 92 17 a0 30 3c ca 3f 30 f9 b0 81 30
       9.525939e-10 1.1648231e-09 6.977279e-10 9.436284e-10
0000f0 06 23 85 30 57 e6 dc 2f d2 84 c8 30 8b 72 aa 30
       9.686978e-10 4.0181433e-10 1.4589665e-09 1.2401683e-09
000100 fa 64 3e 31 b4 df bc 30 28 a6 5f 30 20 8a 87 30
       2.7706037e-09 1.3742381e-09 8.136305e-10 9.8618e-10
000110 dd ff a0 30 e7 20 ed 30 15 fe f6 30 72 65 c0 30
       1.1714253e-09 1.7253371e-09 1.797107e-09 1.3998671e-09
000120 5c 7c 09 30 b4 8a cb 30 82 1e 9a 30 d4 73 58 30
       5.0017035e-10 1.4809616e-09 1.1213646e-09 7.8744944e-10
000130 ca 27 59 30 1d cc 8e 30 50 a3 34 30 56 ef 88 30
       7.9000684e-10 1.0389872e-09 6.57157e-10 9.963326e-10
000140 50 e9 61 30 f6 c2 59 31 2d 76 33 30 75 11 6b 30
       8.218608e-10 3.1688479e-09 6.528776e-10 8.551731e-10
000150 f0 87 db 2f 4b bf 3d 30 46 16 4d 30 f0 74 95 30
       3.9932457e-10 6.9029643e-10 7.461022e-10 1.0874412e-09
000160 92 56 b9 30 71 b0 d3 2f f9 a5 e9 30 d4 13 c1 30
       1.3485126e-09 3.8506046e-10 1.7000154e-09 1.4048234e-09
000170 8c 25 11 31 c8 22 3b 30 0f e8 39 30 ca a0 38 31
       2.112162e-09 6.807963e-10 6.7632383e-10 2.6866922e-09
000180 52 86 79 30 13 fc bf 30 53 53 91 30 0c 31 98 30
       9.0776553e-10 1.3968723e-09 1.0573821e-09 1.1073396e-09
000190 ea c1 11 30 e7 a5 05 31 d4 c3 95 30 5c a3 aa 30
       5.302626e-10 1.9448352e-09 1.0896835e-09 1.2415557e-09
0001a0 b2 fc d4 30 0d b2 51 30 d6 1f 58 30 48 e1 96 30
       1.549685e-09 7.628678e-10 7.8625584e-10 1.0977965e-09
0001b0 f5 b3 08 30 a1 fa 47 30 66 85 b2 30 08 77 6a 30
       4.9732246e-10 7.2751943e-10 1.2989119e-09 8.529786e-10
0001c0 f4 1e b9 30 5c b0 85 30 24 7d a1 30 2e cc e7 30
       1.3469319e-09 9.727148e-10 1.1749859e-09 1.6865493e-09
0001d0 29 62 5c 30 09 f9 42 30 69 ce c8 30 2b c5 6d 30
       8.017503e-10 7.093069e-10 1.461058e-09 8.650029e-10
0001e0 9e 98 38 30 f6 73 55 30 3e 72 69 30 3f c4 84 30
       6.715569e-10 7.765374e-10 8.4927254e-10 9.66004e-10
0001f0 a4 a5 8d 30 e4 72 11 31 44 d3 c5 30 00 00 00 00
       1.0306178e-09 2.1165585e-09 1.4393682e-09 0.0
000200 be 8c 6b 30 1d 33 e7 30 f0 5e 59 30 dc b5 32 31
       8.569251e-10 1.6821989e-09 7.9079054e-10 2.6005784e-09
000210 67 d6 db 30 ce 40 d2 2f 92 b6 9c 30 5c 81 2b 30
       1.5995284e-09 3.8244824e-10 1.1402383e-09 6.239327e-10
000220 61 5a 4b 30 59 41 2a 31 a0 7d d5 30 f9 90 40 30
       7.3979406e-10 2.4775402e-09 1.5533494e-09 7.005521e-10
000230 2a ed b4 30 cd 35 a5 30 20 16 d0 30 b1 f7 c5 30
       1.316413e-09 1.2020621e-09 1.514028e-09 1.4404035e-09
000240 bd d4 c9 30 99 35 3f 31 b1 d2 d0 30 33 bb 3b 30
       1.4685139e-09 2.7824625e-09 1.5193874e-09 6.829623e-10
000250 f7 55 8b 30 22 f0 f5 30 ab 0c f9 2f 83 04 b1 30
       1.0138014e-09 1.7894346e-09 4.5301837e-10 1.2879727e-09
000260 42 f3 f2 30 3f e3 d0 30 6b f7 90 30 2c 97 5c 30
       1.7676955e-09 1.5198579e-09 1.0547699e-09 8.025036e-10
000270 ee b6 03 31 bb 03 52 2f db 16 8c 30 71 49 3c 30
       1.9166992e-09 1.9100714e-10 1.0192837e-09 6.849837e-10
000280 63 e4 f0 30 32 70 a4 30 a8 bc 1a 30 cc 55 bf 30
       1.752721e-09 1.1964458e-09 5.629297e-10 1.3921464e-09
000290 1f 1b 86 30 7a 0e 79 30 19 50 1a 30 af 12 0e 31
       9.757491e-10 9.0606245e-10 5.61387e-10 2.067434e-09
0002a0 6f 55 d5 30 86 82 41 30 80 92 4f 30 6d 4a 3b 30
       1.5522071e-09 7.0398476e-10 7.551435e-10 6.813597e-10
0002b0 fb 83 0f 31 31 0f 0c 31 e7 a5 db 30 cf 64 f4 30
       2.088426e-09 2.0381317e-09 1.59815e-09 1.7781988e-09
0002c0 81 59 4f 31 c0 68 d1 30 9f 14 b5 30 0f 14 17 30
       3.0173342e-09 1.5236523e-09 1.3175344e-09 5.4961985e-10
0002d0 76 4e d5 30 10 ab 15 30 24 f5 a7 30 1d 6a 53 30
       1.552009e-09 5.444898e-10 1.2220522e-09 7.691215e-10
0002e0 13 1c 51 30 98 d0 d0 2f 3b 66 94 30 d2 bf 35 30
       7.6073653e-10 3.7983194e-10 1.0797473e-09 6.612001e-10
0002f0 a0 cd 46 30 75 84 9b 30 31 e9 28 31 64 02 80 30
       7.232419e-10 1.1315381e-09 2.4579772e-09 9.313905e-10
000300 30 fe e6 30 0e da ae 30 df ab 03 31 3c 3f 2c 30
       1.6806947e-09 1.2722141e-09 1.9160706e-09 6.2663097e-10
000310 f0 f0 f0 30 42 07 34 31 e8 d7 75 30 5e 92 da 2f
       1.7530777e-09 2.6197573e-09 8.94373e-10 3.975797e-10
000320 9a 30 24 31 7f d0 8e 30 2d 58 b5 30 2d 7b 1c 30
       2.3892768e-09 1.0391118e-09 1.3194544e-09 5.692751e-10
000330 5f 21 88 31 32 e8 15 30 07 46 6c 30 cc d6 b1 30
       3.961915e-09 5.4535854e-10 8.5955815e-10 1.2939494e-09
000340 3f 17 83 30 69 28 62 30 dc c3 8a 30 ad b3 a3 30
       9.538111e-10 8.227575e-10 1.0096488e-09 1.1910878e-09
000350 4f 60 2f 31 4f 29 0b 30 3b 20 cb 30 86 ec f2 30
       2.5520597e-09 5.062661e-10 1.4779354e-09 1.7675041e-09
000360 5c 07 53 30 01 a0 32 31 58 8e 26 30 5a 7e 29 30
       7.677181e-10 2.599336e-09 6.059273e-10 6.16614e-10
000370 cc 24 e4 30 31 e5 95 30 79 f0 f6 30 00 00 00 00
       1.6599642e-09 1.0906317e-09 1.7967202e-09 0.0
000380 71 1c 8f 30 8a ac 56 30 3b d0 ba 30 ec 08 00 31
       1.0412703e-09 7.809794e-10 1.3592464e-09 1.8631523e-09
000390 6b 03 99 30 e4 f3 e6 2f 7f 48 1f 30 ba cf f8 30
       1.1133187e-09 4.201005e-10 5.7946886e-10 1.8103414e-09
0003a0 ce 35 12 31 35 08 a1 30 ae 90 a6 30 10 9a 58 30
       2.127638e-09 1.1716624e-09 1.211921e-09 7.879928e-10
0003b0 2d 15 87 30 3a 99 1a 30 23 ed cd 30 51 78 62 30
       9.828561e-10 5.624262e-10 1.4983111e-09 8.23893e-10
0003c0 9f 2b d4 30 51 e7 5f 31 80 23 03 30 fd ad 28 30
       1.5437428e-09 3.258226e-09 4.770797e-10 6.1365296e-10
0003d0 b4 5b 0c 31 f2 8a 82 31 88 30 cb 30 21 89 7e 30
       2.0424809e-09 3.799294e-09 1.4783987e-09 9.2599534e-10
0003e0 d1 77 c5 2f d0 77 be 30 c8 18 d9 30 41 c6 a7 30
       3.5919226e-10 1.3858372e-09 1.5795871e-09 1.2207196e-09
0003f0 2c 20 6a 30 b5 c5 32 30 d2 67 ab 30 16 aa 97 30
       8.5174423e-10 6.503698e-10 1.2471395e-09 1.1035037e-09

exp_avg f4 [128]
000000 94 9f 2a 38 3a 45 a4 38 ea 92 df b8 48 97 ae b8
       4.0679777e-05 7.833024e-05 -0.000106608335 -8.325145e-05
000010 72 81 28 37 15 2b 13 b8 b8 63 a3 b7 83 10 95 b8
       1.0043719e-05 -3.5087654e-05 -1.947755e-05 -7.107949e-05
000020 60 c5 29 38 0a 99 8c b7 05 9f 26 37 46 b1 9b b8
       4.047656e-05 -1.6760565e-05 9.931396e-06 -7.423996e-05
000030 7f 27 42 37 a5 26 7c b7 3e 93 71 37 05 38 9d b8
       1.1572497e-05 -1.5029368e-05 1.4399002e-05 -7.496778e-05
000040 c7 09 37 32 0f f6 67 b8 1b fd b7 37 f5 ee 4a 38
       1.0654225e-08 -5.530385e-05 2.1933161e-05 4.83831e-05
000050 6d af b9 b7 58 93 23 37 be d5 17 b5 e4 8d a8 b8
       -2.2135408e-05 9.749863e-06 -5.656292e-07 -8.0372934e-05
000060 59 3f a5 36 dc d8 83 38 39 75 c5 37 10 08 d7 37
       4.924758e-06 6.28696e-05 2.3538816e-05 2.5633752e-05
000070 4d 28 01 b7 d9 16 7f 2c 2b 85 4a 38 a7 43 77 b7
       -7.698382e-06 3.6250363e-12 4.8284575e-05 -1.4738099e-05
000080 22 e1 ea b7 a3 b5 0f 39 07 54 cb b7 27 e3 77 37
       -2.799981e-05 0.00013705208 -2.4238614e-05 1.4775235e-05
000090 f3 01 21 b8 23 78 38 30 15 9d 14 38 3d 8a ec b7
       -3.8387207e-05 6.7109535e-10 3.5432244e-05 -2.8197765e-05
0000a0 b6 81 b1 38 a3 c1 7e b8 b9 fb a7 b7 7d 39 e1 37
       8.464178e-05 -6.0738657e-05 -2.0025169e-05 2.684886e-05
0000b0 01 da 6d b6 a4 e8 6d b8 96 85 90 37 55 bc 6d 38
       -3.5442647e-06 -5.6721867e-05 1.7228343e-05 5.66806e-05
0000c0 5a 93 c5 b8 59 98 97 b8 6b 95 f7 37 ce 34 8f b6
       -9.4211384e-05 -7.228618e-05 2.9514273e-05 -4.2678794e-06
0000d0 1b 9d 05 39 74 e5 a0 b7 10 f2 a1 b7 97 6e 3b 38
       0.00012742395 -1.9180334e-05 -1.9305415e-05 4.468727e-05
0000e0 40 4c 03 b8 1e d8 13 2c 5f 74 f9 b7 2c 98 78 38
       -3.1303847e-05 2.1009926e-12 -2.9737303e-05 5.926953e-05
0000f0 4f 7f 10 2e 20 5b 2e 38 56 28 33 b8 f7 42 15 b9
       3.2854882e-11 4.15697e-05 -4.271449e-05 -0.00014234694
000100 b2 76 d9 36 27 0d 07 b8 bb 44 19 2d f5 41 d8 b7
       6.480922e-06 -3.2198757e-05 8.712304e-12 -2.577992e-05
000110 73 45 b2 b6 db 36 a4 38 ed 14 c9 b7 c0 22 04 37
       -5.3128983e-06 7.830347e-05 -2.3970812e-05 7.875904e-06
000120 5d 99 a6 38 6c 86 ac 38 5d 71 d7 b8 50 4c 88 b8
       7.944063e-05 8.226637e-05 -0.000102731145 -6.4992e-05
000130 52 51 c7 b8 56 9a 3c 39 f8 ae 80 38 0c 98 0a b9
       -9.5042065e-05 0.00017986572 6.136106e-05 -0.00013217347
000140 00 00 00 00 56 6c 2f b7 eb c0 fd 37 1a 73 19 b8
       0.0 -1.0456037e-05 3.0249785e-05 -3.658524e-05
000150 8e 17 af b8 fe cf 27 38 57 00 9c 38 ad ca 20 2d
       -8.349038e-05 4.000961e-05 7.438723e-05 9.13995e-12
000160 37 b2 53 38 dc fc b5 34 bc 94 92 b8 a5 29 eb b8
       5.0472296e-05 3.3897857e-07 -6.9895264e-05 -0.0001121343
000170 38 98 a6 b8 76 1e 88 b8 d0 17 1d 38 46 5d d9 35
       -7.94385e-05 -6.490659e-05 3.7453894e-05 1.6194906e-06
000180 f5 84 55 2e 69 20 76 b8 b5 a4 93 b8 3f 4b c5 b7
       4.8548682e-11 -5.8681155e-05 -7.040185e-05 -2.351927e-05
000190 55 c4 1d 38 72 1c eb b7 46 4f be 37 c5 63 e1 b7
       3.7614565e-05 -2.8027429e-05 2.268668e-05 -2.6868549e-05
0001a0 78 24 9d b7 29 af 10 b8 fe ed 49 38 c6 0c db b8
       -1.873284e-05 -3.4495406e-05 4.8143782e-05 -0.00010445113
0001b0 09 2d 20 38 ed cc 6a 2d 5c 54 07 b9 37 f9 e5 b7
       3.8188915e-05 1.3346863e-11 -0.0001290603 -2.7414977e-05
0001c0 b8 9e db 38 b3 fc d4 b8 de 1a 4c 38 83 00 22 38
       0.000104722974 -0.00010156017 4.8662412e-05 3.8624286e-05
0001d0 5f f0 a4 b8 58 d1 74 38 49 85 57 38 77 a1 3f 34
       -7.864902e-05 5.83691e-05 5.1384126e-05 1.7847002e-07
0001e0 b2 d8 e8 2d 72 63 3c b9 8d ff a6 37 e6 eb f3 b7
       2.6471578e-11 -0.00017966123 1.9907742e-05 -2.9077706e-05
0001f0 cc 95 3f b8 a9 71 ce b7 01 1b c1 b7 f6 b1 dc b8
       -4.5677458e-05 -2.461004e-05 -2.3019968e-05 -0.00010523565

exp_avg_sq f4 [128]
000000 c7 2e 04 35 6a e7 2f 34 9b f1 38 34 f1 42 3f 34
       4.92419e-07 1.6382333e-07 1.7224231e-07 1.7812614e-07
000010 83 ea 2b 34 db 0d 13 34 95 fa 28 34 ca a4 d2 33
       1.6010931e-07 1.3695482e-07 1.573738e-07 9.808862e-08
000020 21 a3 e2 33 6c 6a 50 34 cc a8 d2 33 7b bf 8d 32
       1.0553618e-07 1.9410226e-07 9.809591e-08 1.6501636e-08
000030 18 5d 6f 33 f1 77 b1 34 b3 9c 7d 34 58 94 85 33
       5.5731192e-08 3.3056088e-07 2.3619468e-07 6.220279e-08
000040 45 be 52 34 7f 01 7e 33 38 c4 c6 33 a6 6f 3f 33
       1.9626994e-07 5.9140344e-08 9.2557855e-08 4.4572197e-08
000050 81 dc 80 32 14 cd 03 34 70 d1 f5 33 6f 9f c8 33
       1.5001435e-08 1.2274933e-07 1.1446798e-07 9.3422265e-08
000060 90 55 31 33 ce 03 68 34 b9 68 f2 33 06 d2 26 34
       4.1288843e-08 2.1608068e-07 1.1288052e-07 1.5536361e-07
000070 6b a5 1f 34 5a cd 20 2d 30 3f 1c 33 1b 85 f6 33
       1.4868208e-07 9.140544e-12 3.637905e-08 1.14794794e-07
000080 73 79 bf 34 89 1a d5 34 59 9b 82 34 85 03 47 34
       3.5664888e-07 3.9693649e-07 2.4327417e-07 1.85346e-07
000090 8f 76 f3 33 f1 96 15 32 6b 5a 03 33 3b ad d8 32
       1.1337135e-07 8.707262e-09 3.058305e-08 2.5224486e-08
0000a0 f5 0b 77 34 fd 37 fe 31 60 26 f8 33 58 de 2c 33
       2.3008018e-07 7.398738e-09 1.155538e-07 4.024909e-08
0000b0 48 c1 97 34 dd 95 de 33 19 5b 98 33 fe a4 92 34
       2.8266572e-07 1.03649406e-07 7.094622e-08 2.7314667e-07
0000c0 ae 4a 80 34 0b a1 2d 34 cd b0 48 34 5a e0 d7 33
       2.3896195e-07 1.6170468e-07 1.8690771e-07 1.0052527e-07
0000d0 dc e9 07 35 22 a0 97 34 a3 2f 4f 34 c9 e8 bc 33
       5.063173e-07 2.8242454e-07 1.9295707e-07 8.7967756e-08
0000e0 cc 14 96 33 69 56 e6 2b 12 d2 e0 32 c1 cb f7 33
       6.988702e-08 1.6366467e-12 2.6172561e-08 1.15388964e-07
0000f0 81 9f 33 2f 1e 4e ec 33 fe 21 70 33 1b 8a 58 33
       1.6336622e-10 1.1003816e-07 5.591027e-08 5.0417025e-08
000100 35 1c 34 34 f4 49 f2 32 ba 34 68 2e 34 a9 c9 33
       1.6774068e-07 2.8206138e-08 5.2797523e-11 9.39057e-08
000110 1a 2e c2 33 11 3b 34 34 c5 76 3b 34 3d 1a d4 33
       9.042215e-08 1.6785295e-07 1.745894e-07 9.876792e-08
000120 0d 4d a1 34 f9 15 ff 33 fb a8 8f 33 27 83 86 32
       3.004465e-07 1.18783596e-07 6.689694e-08 1.5659294e-08
000130 3b 71 1e 34 5e 9a 89 34 0e de 10 34 79 44 ce 32
       1.475609e-07 2.5630555e-07 1.3491828e-07 2.4012694e-08
000140 00 00 00 00 31 2e 71 32 1b 50 86 33 bc dc 94 33
       0.0 1.4038549e-08 6.254432e-08 6.9319384e-08
000150 bf 08 4f 33 34 d8 9a 33 f2 0c ac 34 b3 65 f4 2d
       4.8203898e-08 7.210511e-08 3.2046916e-07 2.7784752e-11
000160 04 b4 b7 33 13 9e 30 33 ff 66 dc 34 93 8a 66 34
       8.554346e-08 4.112196e-08 4.1053133e-07 2.1470832e-07
000170 43 07 b9 34 10 ba 32 33 3d 37 4e 34 33 31 07 34
       3.446422e-07 4.1613077e-08 1.920534e-07 1.2590753e-07
000180 20 e2 98 2f 6b f9 24 33 65 ef f3 33 9e d3 6c 34
       2.780931e-10 3.841107e-08 1.1359115e-07 2.2056199e-07
000190 4a 2b a1 32 12 8f 8e 32 f4 33 08 33 8c 7f 5d 33
       1.8762552e-08 1.6596037e-08 3.171222e-08 5.1571575e-08
0001a0 f9 54 91 34 94 68 4d 34 a6 b3 8a 34 7a 00 4e 33
       2.707018e-07 1.9130158e-07 2.5835215e-07 4.7963546e-08
0001b0 fe 9e c6 33 a6 6f 5f 2e 49 f1 61 33 63 33 59 32
       9.249014e-08 5.0803493e-11 5.2606342e-08 1.2642746e-08
0001c0 4e 7b 2a 34 9c 5a 9a 33 f2 88 1c 35 82 9c 13 34
       1.5877342e-07 7.1876656e-08 5.831381e-07 1.3747379e-07
0001d0 ef 4b 98 34 d8 c7 dc 33 97 29 9b 34 22 d5 e4 34
       2.8367455e-07 1.02809e-07 2.890126e-07 4.2623384e-07
0001e0 55 7e 75 2f 13 25 68 34 75 e5 ea 34 ba a5 02 34
       2.2327502e-10 2.1620171e-07 4.3752848e-07 1.2167484e-07
0001f0 6c 83 ed 32 23 2e 5d 34 ad b4 d6 33 e6 e4 c3 32
       2.7650195e-08 2.0599013e-07 9.998016e-08 2.2805079e-08

exp_avg f4 [4, 128]
000000 e1 8d 1b b9 8b ec e3 b8 69 ae 48 38 a2 be c6 b7
       -0.00014834806 -0.00010868263 4.7846148e-05 -2.369221e-05
000010 03 a8 0e b8 a7 86 b6 b7 fe 14 7f b8 11 14 8d b9
       -3.401191e-05 -2.1758793e-05 -6.0816288e-05 -0.00026908566
000020 60 7e 17 37 cd 3e f5 b7 48 f5 ba b8 77 ce 0c 39
       9.029725e-06 -2.923552e-05 -8.914858e-05 0.00013428355
000030 79 a2 ad b8 16 58 1e b9 ff 0d 8e b7 8c b2 57 38
       -8.279546e-05 -0.00015100869 -1.6934237e-05 5.142628e-05
000040 84 4b 59 b8 30 5d b7 b8 3f 6a 52 37 9f 41 af b9
       -5.180716e-05 -8.7434775e-05 1.2541713e-05 -0.00033427493
000050 f3 44 e0 b9 bd 51 34 38 1f b8 31 38 b6 ce 98 38
       -0.0004277598 4.299147e-05 4.2371565e-05 7.286428e-05
000060 d9 11 8a b9 f8 83 8e b8 9f ce 81 38 e6 3e dd b8
       -0.0002633471 -6.795669e-05 6.1896855e-05 -0.00010549817
000070 cf 1e 84 b8 db 32 0f 2c 8f 3c ad 38 39 b3 b6 b8
       -6.299989e-05 2.0349753e-12 8.260563e-05 -8.711819e-05
000080 3a 14 d8 37 1b e8 a0 37 63 f4 ac b8 fd 71 24 b8
       2.5758625e-05 1.9181569e-05 -8.24712e-05 -3.9206807e-05
000090 27 aa 92 38 a7 f9 7f 2e b4 82 9e 38 28 e7 38 39
       6.993516e-05 5.8202023e-11 7.5583725e-05 0.0001763372
0000a0 36 df 04 b9 21 55 76 38 e3 be e0 b5 6d 10 ca 38
       -0.00012671654 5.8730253e-05 -1.6744856e-06 9.63517e-05
0000b0 83 34 89 b8 cd a9 d5 b7 ca df 02 38 56 4d cd b6
       -6.54245e-05 -2.5470648e-05 3.1202835e-05 -6.118479e-06
0000c0 ee 9c 1a b8 19 5d 70 37 fd 5d 40 b8 c6 05 48 b8
       -3.6862613e-05 1.4326791e-05 -4.58639e-05 -4.7689093e-05
0000d0 62 d8 ce b8 9e 37 37 b9 17 3c 4f 38 b7 b7 13 b9
       -9.86315e-05 -0.00017472959 4.940861e-05 -0.00014087452
0000e0 cf ff b9 38 3f 30 e3 28 31 d7 8d b8 e9 71 80 b6
       8.8691355e-05 2.5222986e-14 -6.7634865e-05 -3.827958e-06
0000f0 99 b7 72 ab de 39 74 b8 11 b6 7d 38 32 8f a9 38
       -8.6230464e-13 -5.8228026e-05 6.0489463e-05 8.08522e-05
000100 05 67 ac b7 13 25 a6 38 30 c5 0b 2b 0a ed 6b b9
       -2.055197e-05 7.9224024e-05 4.9656373e-13 -0.0002249965
000110 72 0f 8b b8 a4 b0 f6 b7 83 67 b4 b7 4f a6 6f 38
       -6.6309134e-05 -2.940774e-05 -2.1505874e-05 5.7136927e-05
000120 7b f8 0c b7 1b 4b 08 38 5f b2 de b8 ba e4 0a 39
       -8.402504e-06 3.2494874e-05 -0.00010619009 0.00013245913
000130 8a bb 2c 38 ec f9 b3 b8 95 b8 15 b9 1a e4 02 b9
       4.1182655e-05 -8.581937e-05 -0.0001427851 -0.0001248274
000140 00 00 00 00 b9 24 a4 38 a8 f8 8d 38 b8 6a 1f b9
       0.0 7.8269695e-05 6.76972e-05 -0.00015203177
000150 92 86 68 b9 cc 48 c8 b7 c2 f9 58 b9 61 5f 89 2b
       -0.00022175375 -2.3875757e-05 -0.00020692407 9.760908e-13
000160 de d5 20 b8 55 8a c5 38 92 36 aa b8 fa 35 2e b9
       -3.8346152e-05 9.4194584e-05 -8.116396e-05 -0.00016614041
000170 9b 17 49 b8 1b 32 b6 38 90 a4 1d b8 38 b3 f7 b8
       -4.794412e-05 8.687769e-05 -3.7584978e-05 -0.0001181126
000180 89 bd e0 ab 63 98 a2 38 9e 5e 0f 38 14 b2 77 b8
       -1.5968764e-12 7.753146e-05 3.4181976e-05 -5.9055237e-05
000190 89 79 a7 35 ec 73 ab b9 40 38 48 38 7a 53 d1 38
       1.2477841e-06 -0.0003270203 4.7736103e-05 9.981445e-05
0001a0 98 a5 ad b7 df 5d bd b8 34 d2 87 37 68 d2 d8 37
       -2.0700318e-05 -9.029707e-05 1.6191138e-05 2.5847185e-05
0001b0 45 61 c0 37 b6 d7 d5 2b d9 c2 87 38 e3 5b c9 b7
       2.2933478e-05 1.5194432e-12 6.473595e-05 -2.4003855e-05
0001c0 f6 34 41 38 56 06 96 b8 16 d8 32 b9 ec 07 b4 38
       4.606411e-05 -7.1537375e-05 -0.00017055901 8.5845444e-05
0001d0 c6 31 47 b9 72 1f f1 37 f4 0a cf b6 5b e7 b1 b8
       -0.00018996661 2.8744082e-05 -6.170356e-06 -8.483111e-05
0001e0 c7 0f 43 2c 30 1e 21 b9 a3 c6 a7 b8 a0 61 2e b9
       2.7719925e-12 -0.00015365402 -8.0001795e-05 -0.00016630301
0001f0 98 1e 85 38 be c4 30 b8 35 09 90 38 6c 00 78 37
       6.347633e-05 -4.21449e-05 6.86817e-05 1.478205e-05
000200 0d 41 3e 39 e7 81 a9 38 39 73 d0 b9 84 fd 26 39
       0.00018144045 8.082744e-05 -0.000397587 0.00015925436
000210 ee 64 72 39 f1 d9 a3 39 45 5a 95 39 d8 c5 6b 39
       0.00023116518 0.00031252162 0.0002848675 0.00022485049
000220 5c e7 ba b9 90 6d ac b9 04 a1 80 b9 84 b4 07 b7
       -0.0003564906 -0.00032888027 -0.00024534028 -8.088657e-06
000230 c5 99 c4 39 62 cd 4c 39 06 c6 a5 b9 b2 06 16 39
       0.000374986 0.00019531467 -0.0003161879 0.00014307609
000240 8e f0 02 39 91 3f 1f 39 45 86 68 b9 f6 19 02 39
       0.0001248738 0.00015187102 -0.00022175263 0.00012407437
000250 83 53 1e b9 e8 96 69 b8 50 60 94 b9 b9 fc 96 b9
       -0.00015099165 -5.569207e-05 -0.00028300518 -0.00028798523
000260 0a 6e cb 39 0f 01 2c 39 aa 33 a1 b9 2c 2e 0c 38
       0.00038801163 0.00016403593 -0.00030746806 3.3421602e-05
000270 da b2 24 39 b9 37 51 ab e9 24 2b 36 cc 24 af 39
       0.00015706886 -7.4329047e-13 2.550247e-06 0.00033406017
000280 83 cb be b9 93 74 dd b9 e4 f0 2f 39 30 8e 15 39
       -0.00036391252 -0.0004223926 0.0001677904 0.00014262716
000290 ba 7b 6f b9 57 2b e9 2d dd 87 8e b9 79 91 2b 39
       -0.00022838908 2.650828e-11 -0.00027185577 0.00016362024
0002a0 f2 27 f6 38 ab 65 6b b9 80 42 93 39 29 00 62 b7
       0.000117376345 -0.0002244922 0.0002808757 -1.3470687e-05
0002b0 a9 2a b4 39 ee 9c 9d 39 84 c3 28 b9 f6 7b be b9
       0.0003436406 0.00030062295 -0.00016094564 -0.00036331982
0002c0 24 b6 51 39 46 8e 69 b9 f1 ba 0d 39 83 f8 aa 39
       0.00019999646 -0.00022273613 0.00013516449 0.00032610082
0002d0 b2 e1 57 39 8f 23 55 39 02 0c a6 b9 58 6d a5 36
       0.00020588076 0.0002032651 -0.00031670934 4.9301125e-06
0002e0 f6 23 59 b9 91 12 5d a9 dd ed 81 b9 aa 3e ec b9
       -0.00020708129 -4.908796e-14 -0.0002478202 -0.00045060116
0002f0 9b 93 65 2b c4 1a b8 37 c5 f3 25 b9 e4 98 80 39
       8.1561987e-13 2.1946973e-05 -0.00015826437 0.00024527975
000300 01 15 29 39 44 b1 3a 39 ec 41 5b aa b9 ba d3 39
       0.0001612492 0.00017804379 -1.9473979e-13 0.00040384175
000310 b6 dc 54 39 21 58 e2 b9 8c 75 c6 b9 76 8d 29 b9
       0.00020300117 -0.0004317174 -0.00037853082 -0.00016169794
000320 9a 44 95 b9 67 85 8c b9 97 9f d0 39 cf 65 88 38
       -0.00028470607 -0.00026802273 0.00039791755 6.503949e-05
000330 ff 73 85 b9 4a be 31 39 13 13 92 39 9c af b4 b9
       -0.0002545416 0.00016950924 0.000278615 -0.00034463115
000340 00 00 00 00 cf bd 25 38 c2 1f 2c b8 8b 46 8a 38
       0.0 3.951584e-05 -4.1037572e-05 6.5934924e-05
000350 33 6b 93 b9 a4 91 1f 39 b0 f8 3c 39 12 27 4f ab
       -0.00028117895 0.00015217677 0.0001802172 -7.3595394e-13
000360 c1 ce 6a 38 b5 14 ab b7 89 8f bd b9 db aa ac 39
       5.5982502e-05 -2.0394431e-05 -0.0003615583 0.00032933694
000370 e5 7c 83 39 c8 41 64 b9 a0 e3 5b 39 f5 48 0d 39
       0.0002507932 -0.0002176828 0.00020970264 0.00013473986
000380 23 98 07 2c 10 5f ed b8 43 e7 8c b9 e2 ab a3 39
       1.9269107e-12 -0.000113187474 -0.00026875184 0.00031217845
000390 04 15 1d b9 02 a7 11 b9 77 1a 32 b9 bd d8 f3 38
       -0.00014980516 -0.00013890493 -0.00016985262 0.000116275136
0003a0 ae 37 c5 b9 a7 4b c6 b9 da 7d 5c b9 8a d3 a3 39
       -0.00037616253 -0.00037821868 -0.00021027718 0.00031247392
0003b0 33 84 4d 38 ee 5a 99 ab fd fc 67 b9 65 b4 3b b9
       4.899893e-05 -1.0896542e-12 -0.00022124122 -0.00017900912
0003c0 65 97 68 b9 33 83 6e 39 06 e8 8a 39 aa 24 b7 b9
       -0.00022181643 0.00022746324 0.00026494282 -0.00034931797
0003d0 5f e1 b5 39 0f 21 c4 b9 a0 48 98 b9 0f 13 97 39
       0.00034690925 -0.00037408664 -0.0002904581 0.00028815164
0003e0 53 d7 4a ac 0e fb 2f 39 41 2e 72 39 ab 31 f4 b9
       -2.8825455e-12 0.00016782826 0.0002309615 -0.00046576312
0003f0 e6 5f af 39 7a 70 db b9 42 43 80 39 ff d6 82 38
       0.0003345005 -0.00041854737 0.00024464173 6.238929e-05
