website_backend/tagger_backend/tagger_weights_v1.pt (torch, 201400 bytes, 4 tensors)

hidden_layer1.weight f4 [128, 384]
000000 33 6b bf bd a4 b9 50 bc 12 14 ae bc 29 70 2f 3d
       -0.093466185 -0.012739573 -0.021249805 0.042831574
000010 cd 02 40 3d 7a a3 0f 3d c1 82 8c bd b6 b0 fd 3c
       0.04687767 0.035068013 -0.06860877 0.030968051
000020 bd ed db 3c 1d c4 72 bd d5 0b 6d 3c 7d 43 f3 3c
       0.02684676 -0.05926906 0.014468153 0.029695267
000030 08 72 3f bd 0e 3f f6 bc 39 ea a0 bd 55 c3 b9 3d
       -0.046739608 -0.030059364 -0.078571744 0.0907046
000040 59 cf dd bc b1 e2 a3 3d ae 82 2d bd 58 82 91 3c
       -0.02707641 0.08002222 -0.042360954 0.017762348
000050 17 ab 36 bb 49 9f 40 3c a5 ff fb 3a 55 67 54 3b
       -0.0027872974 0.011756727 0.0019225968 0.0032410224
000060 44 36 3c 3b be 68 6f 3d a9 c5 44 bd c1 6e 48 bd
       0.0028718868 0.0584495 -0.048040066 -0.04893375
000070 4d 87 52 3d 2a 8c 49 bd 5a 4b ec 3c ba e2 df bd
       0.051398564 -0.049205936 0.028844524 -0.109319165
000080 59 44 9c 3d a6 bd 4a 3d 5d a5 aa bc 95 4d ae 3d
       0.07630224 0.04949727 -0.020830804 0.08510891
000090 d6 d2 27 bd 92 bb 1e bd 4c 69 8b bd d3 6f 86 bc
       -0.040972553 -0.0387531 -0.06807193 -0.016410744
0000a0 b7 3f 9a 3c d3 d3 67 bd 1e 22 31 bd c2 7a b5 39
       0.01882921 -0.056598496 -0.043245427 0.00034614472
0000b0 40 79 84 bd ca 22 3b 3d 03 df 8f 3d fd 8a 8f bd
       -0.06468439 0.045687474 0.07024958 -0.07008932
0000c0 f7 12 18 3d 98 f2 ee 3a fe e9 d3 bd 5b dd 2e bd
       0.03712746 0.0018230258 -0.10347365 -0.04269157
0000d0 6e 99 3e bd 33 7b d6 3c 9e 2a 6f bd 43 8d 4e bc
       -0.04653304 0.026181793 -0.058390252 -0.012606922
0000e0 93 28 fc 3b 1f b1 f9 bc ab bd b6 bd a7 4d b7 3b
       0.0076952665 -0.030479966 -0.08922895 0.0055939737
0000f0 9c 36 91 bd 2e 4b 8e 3d 25 b1 88 bc 62 72 e9 bc
       -0.07090494 0.06947933 -0.016686032 -0.028496925
000100 01 35 04 bd e7 e2 83 3d f9 31 7a 3b 67 e7 ae 3c
       -0.03227711 0.064397626 0.0038176759 0.021350576
000110 a3 2c a6 3c 89 01 3b 3d af a2 7b bd ca 34 10 bd
       0.020284956 0.04565576 -0.061434444 -0.035206594
000120 f1 fd f7 bb c4 98 fb 3c 73 bc d3 bc 01 fc 56 3d
       -0.007568114 0.030712493 -0.025846696 0.052486423
000130 0d 0f 0b 3d b9 8e 0b 3c c5 45 13 3c f7 58 0f bd
       0.0339499 0.008517914 0.008988802 -0.034996953
000140 b8 d9 c5 3b 1c eb a9 3d 64 ef 03 3c 50 92 87 3c
       0.006037917 0.08296797 0.008052681 0.01654926
000150 24 b8 21 bd 54 92 d8 3c 8d 6e 0e 3e 48 0d 44 3d
       -0.03948225 0.026436962 0.1390936 0.04786423
000160 79 ae 80 bc 6d 36 1f 3d 25 1f db 3d 4f 66 97 3d
       -0.015708195 0.038870264 0.106993 0.07392561
000170 00 ae 08 3d 33 19 32 3c 3a 60 31 3d 92 cd 0e 3d
       0.033369064 0.010870266 0.04330466 0.034864016
000180 c8 f2 1d bc 8f b7 43 bd 66 91 fa 3c 08 50 81 3d
       -0.009640403 -0.047782477 0.03058691 0.06314093
000190 b8 32 15 3d 7f 67 fb bc 3f 68 00 bd 03 a8 56 bd
       0.036425322 -0.030689 -0.031349417 -0.052406322
0001a0 57 27 e3 bc c2 fb ad bd 28 ec cc bb 86 a0 f2 ba
       -0.02772872 -0.084952846 -0.006253738 -0.0018510974
0001b0 55 3e c0 bd 41 a7 88 3d 81 77 f3 bc 99 83 da bc
       -0.09386889 0.06672526 -0.02972007 -0.026674079
0001c0 27 d8 83 bd 3c 16 7a bd 40 2f fa bd d0 2e c0 bc
       -0.06437712 -0.06105636 -0.122160435 -0.023459822
0001d0 74 49 9b bd 95 fe 41 3d e2 47 07 bd cb 6f 3b bd
       -0.075823694 0.04736193 -0.033027537 -0.04576091
0001e0 0c af 81 3d ff 53 0d 3d 9c 4a 7c 3b 3c c5 a0 bc
       0.06332216 0.034503933 0.003849662 -0.019625299
0001f0 f4 c3 43 bd 06 75 94 bd c7 1f 9d bc 1b ce 37 bd
       -0.047794297 -0.07248883 -0.019180192 -0.044874292
000200 65 4f 9f 39 34 f3 6a 3d 03 c6 98 b9 f6 cd 22 3d
       0.00030385997 0.057360843 -0.0002913923 0.0397472
000210 0b 6c b5 bd 2c 02 0b bb 26 63 a1 3c d6 3f bc bb
       -0.08858498 -0.0021211011 0.019700598 -0.0057449145
000220 53 70 81 ba 2b 8f 05 bd 6f 3e 04 bd cf 0d 24 3d
       -0.0009875394 -0.03260724 -0.032286104 0.04005223
000230 43 48 3f 3d 1b 9b 28 bd 26 6b 64 bd 2c 21 cc 3c
       0.046699774 -0.041163545 -0.055766247 0.024918161
000240 1a b0 05 bc 46 16 91 3b a0 cc 06 3d c8 26 11 3d
       -0.008159662 0.004427704 0.03290999 0.035437375
000250 4c 13 cc 3d 49 cd ca bb d0 54 a4 3c f2 a3 cb bc
       0.09964618 -0.0061890227 0.020059973 -0.024858449
000260 42 85 2c 3d 07 de 77 bd fb dc 10 bd e0 b9 d5 3d
       0.042119272 -0.060514476 -0.035366993 0.104358435
000270 34 2b 28 3d 36 d2 1b bd a8 51 a2 3c e8 4b 84 bd
       0.041056827 -0.03804227 0.019814327 -0.064597905
000280 db 16 cc 3d 8a 9e fc bb be d3 c5 3b fc eb 0e 3c
       0.09965297 -0.007709329 0.0060372045 0.008723255
000290 90 48 91 3c c4 29 94 3b 78 27 90 bb 6d 24 ef bd
       0.017734796 0.0045215804 -0.0043992363 -0.116768695
0002a0 6e 3b 96 3c 41 2c 03 bd c3 c4 76 3d d3 7e 2e 3d
       0.018338885 -0.032024626 0.06024624 0.042601418
0002b0 4d 70 36 3d 17 2f 11 3c 7e 17 4d 3c 1c 0f b2 ba
       0.044540692 0.008861325 0.012517808 -0.0013584825
0002c0 82 84 23 3c 18 8d bb 3c ad f7 37 bc 0a 5b 25 3b
       0.009980323 0.022894427 -0.011228484 0.0025231265
0002d0 5b 84 88 3d 72 47 5a bd 8f 95 86 3c e1 25 9a 3c
       0.0666587 -0.05329079 0.016428737 0.01881689
0002e0 f1 4b 16 bd 88 7a c6 bc 80 98 2c bd 24 60 12 3c
       -0.036693517 -0.02422835 -0.042137623 0.0089340545
0002f0 90 47 c0 bd 04 f2 81 3d 43 7e 83 bd e8 3c 82 3d
       -0.093886495 0.06344989 -0.06420567 0.06359273
000300 fa de b2 bd f6 8f 25 bd 27 06 da bc c2 3d 2b 3c
       -0.08733936 -0.040420495 -0.026614262 0.010451736
000310 d5 d5 dd 3c 2d f1 ad bc c0 04 1d bd c0 be 8f 3d
       0.027079502 -0.021233166 -0.038334608 0.070188046
000320 3a 2b a7 3c ed 84 a4 3d 1e 51 e5 3b 63 df 7f bc
       0.020406354 0.08033166 0.0069981953 -0.015617224
000330 e3 57 9c bd 4e 47 79 3c 33 fb 31 3d ac d4 5d bd
       -0.076339506 0.015214754 0.043452453 -0.054157898
000340 e8 e1 1b bc 5c b4 01 3d d6 1a 0e bd 68 67 04 bc
       -0.0095143095 0.031666145 -0.03469356 -0.008081295
000350 df 10 08 3d 4a ef 4b bb 07 05 49 bd b6 21 ab 3d
       0.033219215 -0.003111797 -0.04907706 0.08356039
000360 76 53 d3 bc 9d 4d 1a 3d 79 02 ef 3c 25 94 e4 3c
       -0.025796633 0.037671674 0.029175984 0.027902672
000370 22 86 84 3d ba bb f2 3c ab 43 64 3c 40 23 72 bc
       0.06470896 0.02963053 0.013932149 -0.014778912
000380 00 2f d4 bb ac a7 8e bd 42 cc 7b 3d 55 51 c8 3c
       -0.0064753294 -0.069655746 0.061474092 0.024452845
000390 d8 aa 20 bc ef 8d b3 3c a0 41 61 bd fc 0f 20 bd
       -0.009806357 0.021918265 -0.054994226 -0.039077744
0003a0 8f 89 c8 bb 98 6f 7c 3d e6 0a 1f 3d 48 1e b1 3c
       -0.006119914 0.06162986 0.038828753 0.021620885
0003b0 bb 9b 72 bc bb 2d b9 bc a0 0d 94 bd 68 77 13 3c
       -0.014807637 -0.022604814 -0.07229161 0.009000637
0003c0 aa 03 8d 3d fb 74 30 bb a6 8c 00 bd cf 93 94 bb
       0.068854645 -0.0026925195 -0.031384133 -0.0045342217
0003d0 95 ac 64 3c 07 cd 58 3c 24 e8 ec bc 50 7c b3 3d
       0.013957162 0.013232476 -0.028919287 0.08763945
0003e0 57 94 ec bc d7 cf 5e bc f0 aa 04 3d 33 45 36 3d
       -0.028879328 -0.013599358 0.03238958 0.044499587
0003f0 fd 32 f4 3c 59 49 e1 bd 74 b1 27 3d a4 37 e2 bd
       0.02980947 -0.11000318 0.040940717 -0.11045769

hidden_layer1.bias f4 [128]
000000 57 ab 2f 3d 92 e2 6b 3d 9a 2b 5f 3b 88 86 3b 3d
       0.04288801 0.05758912 0.0034053088 0.045782596
000010 5d f5 18 3d 4b 1c 05 3d e2 eb 85 3d 12 4d 11 3d
       0.03734337 0.032497685 0.06539132 0.03547389
000020 44 dc 71 3d 50 7d 90 3d 7e d1 e0 3b 88 fe 08 3b
       0.059047952 0.070551515 0.006860911 0.0020903666
000030 d4 d4 4f 3c b3 32 64 b8 74 8c 9c 3d 99 45 85 3d
       0.0126850195 -5.4406653e-05 0.07643977 0.06507415
000040 84 5a 8e 3c 04 dd 96 bb bf be 86 3d 92 5b b2 3c
       0.017377146 -0.004603984 0.06579351 0.02177218
000050 41 f6 f7 3c e1 ea cb 3c b9 fc f3 3c 80 a2 95 3d
       0.03026879 0.024892272 0.029783593 0.07306385
000060 ca 95 33 3d 03 a2 86 3d 20 16 12 3b 63 ac 18 3d
       0.04384402 0.0657387 0.002229102 0.037273776
000070 e3 53 59 bc 87 6b 66 bd f6 a5 19 3d 0c 9d 18 3d
       -0.013264629 -0.05625489 0.03751179 0.037259147
000080 41 68 f2 3c 3b 50 e0 3c 0f 28 41 3d 5d c1 5f 3d
       0.029590728 0.027382007 0.047157343 0.054627765
000090 9f 07 93 3d 2a dd 70 3b a8 8c dc bc 03 4f 8a 3d
       0.07179188 0.0036752918 -0.026922539 0.067533515
0000a0 f0 20 40 bb 38 d5 54 3b 35 08 14 3d 1f 82 60 3d
       -0.0029316507 0.003247572 0.03614064 0.054811593
0000b0 5c 4f 93 ba 13 af 37 3d 57 04 e6 3c 06 07 95 3d
       -0.0011238861 0.0448447 0.028078241 0.0727673
0000c0 e3 10 96 bb 6e 7b 90 bc 7f 89 0d 3c 88 16 02 bc
       -0.00457965 -0.01763698 0.008638739 -0.007939942
0000d0 9f 4b f0 3c 12 69 f1 bb 28 a3 a1 3d 19 e7 01 3d
       0.029332934 -0.0073672617 0.07892448 0.031714533
0000e0 f0 9f f1 39 76 01 64 bd 42 9c c4 ba dd 4d 33 3c
       0.00046086265 -0.055665456 -0.0015000182 0.010943857
0000f0 74 1a 37 bd 8f 36 91 3d 02 03 77 3b 91 a1 40 3c
       -0.044702962 0.07090484 0.0037691002 0.01175727
000100 b2 ef 30 3d 9f b2 aa 3c f8 4b 1a bd 43 22 48 3c
       0.04319734 0.020837126 -0.037670106 0.0122152
000110 83 82 fe 3c b8 68 6d 3d fa 29 7e 3d c8 18 a0 3c
       0.031068092 0.057961196 0.06205175 0.019543067
000120 96 e9 e4 3c f5 0e 33 3c a7 c2 96 3c 73 51 1d 3b
       0.027943414 0.010928859 0.018403364 0.0024004846
000130 c3 3a 26 3d 99 33 ff 3c 3a 5c 1d 3d 0b b7 15 3c
       0.040583383 0.031152533 0.038418032 0.009137879
000140 f5 93 35 bd 5b 6a b0 bc cd aa 3d 3d 84 f6 94 3c
       -0.044330556 -0.02153509 0.046305466 0.018183954
000150 07 9b 81 3c 52 44 81 3c 4b e1 d1 3b f8 91 0d bd
       0.015820993 0.015779648 0.006405031 -0.034563035
000160 3e 0d 04 3d fc a6 39 3d 82 02 77 3d 4e 26 0e ba
       0.03223919 0.045325264 0.060305126 -0.0005422578
000170 43 84 d8 3c ed 99 b2 3d bc 4f ba 3c 7e 6e 09 3d
       0.026430255 0.08720765 0.022743098 0.03355264
000180 27 22 dc bc ec 29 42 3d 18 77 6a 3d e8 e2 2a 3c
       -0.026871754 0.04740326 0.057242483 0.010430075
000190 07 be d2 bc e6 fd 62 3d f4 87 f5 b8 6e f2 2b 3d
       -0.025725378 0.055417918 -0.000117078336 0.041979246
0001a0 e7 9c 04 3d df 42 32 3c 2b 15 f6 3c 08 48 95 3b
       0.032376196 0.010880201 0.03003939 0.004555706
0001b0 31 78 2f 3d b4 24 3e bd 4a 5e 9b bc 66 9d cb 3b
       0.042839233 -0.04642172 -0.018965859 0.0062138317
0001c0 fa 47 17 3d af 8b 0e bd 22 bf 1b 3d 46 1f 31 bc
       0.036933877 -0.03480118 0.038024075 -0.010810679
0001d0 29 e3 16 3c d3 fa 74 bb a7 3c ba 3c db 7c 0b 3d
       0.009209433 -0.0037380948 0.022734 0.03405462
0001e0 1d 2b 53 bd ea aa 6e 3d 30 77 84 3d f1 6f 87 3d
       -0.051554788 0.058268465 0.06468046 0.06613148
0001f0 32 13 0c 3d 77 a0 6e 3d b3 a6 5b 3d 98 b7 0a bc
       0.034197994 0.0582585 0.053625774 -0.008466624

hidden_layer2.weight f4 [4, 128]
000000 3a fa 09 3e eb fc d1 3d bc 3e d8 bd 7c ac 97 3d
       0.1347436 0.102533184 -0.10558841 0.07405946
000010 7c f1 96 bc 9d 47 2a bc 1b 61 78 3c 89 1f 0c 3e
       -0.018425696 -0.0103930505 0.0151598705 0.13683905
000020 ea b0 99 bd c7 2a c7 bd 8a 7c 05 3d 9c c0 b9 bd
       -0.07504447 -0.09724956 0.032589473 -0.090699404
000030 9e 0a f8 3b 01 bc 14 3e b9 53 17 be d1 36 3e bd
       0.007569625 0.14524843 -0.14778031 -0.046438996
000040 9d d6 d3 3c a7 d2 08 3d 7b 3e f2 bd 25 e8 20 3e
       0.025859172 0.03340402 -0.118283235 0.15713556
000050 f1 2b 22 3e 59 c7 20 be 8f a0 17 be c6 8f 03 be
       0.15837075 -0.15701045 -0.14807342 -0.12847814
000060 cb 33 a7 3d 18 c7 3a 3d 05 4a 42 be eb 0b 01 3e
       0.081641756 0.045600027 -0.18973549 0.12602203
000070 2c 60 4b 3d 9d 86 cc 3c 79 2f 21 bd 0d 17 37 3b
       0.049652264 0.024966532 -0.039351914 0.0027937323
000080 85 eb 36 be 6c a1 2b be f4 d5 db 3d b7 f1 fc 3c
       -0.17863281 -0.16760796 0.10734168 0.030876977
000090 93 b0 1f be d3 03 8e 3d 7c a5 1a be 9d e4 07 be
       -0.15594701 0.06934323 -0.1510219 -0.13270803
0000a0 33 62 28 3e bd 56 1f be 1e fe 4b bd 2b f1 5a bd
       0.1644371 -0.15560432 -0.049802892 -0.053452652
0000b0 86 1e 8e bc 20 07 b0 bd 6e 46 1a be e8 4b fa bd
       -0.01734854 -0.08595109 -0.1506593 -0.12221509
0000c0 e9 b7 d9 39 b8 19 17 be 58 df cc 3c b0 17 66 bd
       0.0004152649 -0.14755905 0.025008842 -0.056174934
0000d0 ab ef 18 3e 52 1c 27 3e 44 6e 22 be 16 25 d9 3d
       0.14935176 0.16319397 -0.15862375 0.10602777
0000e0 b3 00 23 be c5 01 17 3d 8a 1d 81 3d ff ea 95 bd
       -0.15918235 0.036866922 0.06304462 -0.073202126
0000f0 2e 0e 37 bd f1 6f 8a 3d 00 6d ce bd ba fc d4 bd
       -0.044691257 0.067596324 -0.10079384 -0.10399766
000100 7e 67 39 bc 5b 17 e6 bd 06 c5 46 3d 47 87 7d 3d
       -0.011316178 -0.112349235 0.04852774 0.06189659
000110 a9 84 9b 3c 4f d4 6a bd 07 82 e0 bd 15 67 21 be
       0.018984156 -0.05733138 -0.10962301 -0.15761979
000120 ab 34 04 be 60 a5 ae bd 67 e3 85 3d 90 6b 1c be
       -0.12910716 -0.085276365 0.06537514 -0.15275407
000130 89 fe 21 be 28 f5 19 3e 3f de a3 3d 46 b8 a3 3d
       -0.15819754 0.15034926 0.080013745 0.07994132
000140 ee 5f 96 bd 11 5f 94 bd 51 9e 00 bd 27 5d 14 3e
       -0.07342516 -0.07244695 -0.031400982 0.1448866
000150 aa 33 ce 3d 43 5a 00 bc 32 39 34 3e f4 69 ab 3a
       0.10068448 -0.00783402 0.17599943 0.0013077841
000160 10 65 48 3d ef ab 13 be 20 3d 94 bd f9 b6 0f 3d
       0.048924506 -0.14421056 -0.07238221 0.035086606
000170 0b a6 92 bc 00 c5 18 be 81 b2 0b 3c 31 ec d6 3d
       -0.017901441 -0.149189 0.008526445 0.10494269
000180 33 20 8c bd 7d aa ee bd 5d 09 0b be 1b d6 95 bc
       -0.06842079 -0.11653612 -0.1357779 -0.01829057
000190 0d a5 ac bd 58 68 f7 3d c8 f3 bf bd e2 84 2c be
       -0.084299184 0.12080449 -0.093726695 -0.16847566
0001a0 a4 f9 98 bd 6c 01 d4 3a a1 ca 2c be 15 96 20 be
       -0.0746949 0.001617474 -0.16874172 -0.15682252
0001b0 c1 fd 7a bc cf c2 7f 3d 50 98 90 bd c2 3a af 3d
       -0.015319289 0.062441643 -0.07060301 0.08556129
0001c0 60 96 37 be 50 2e 5c 3d b1 1d 18 3e f0 ad 49 be
       -0.17928457 0.053755105 0.14855076 -0.19695258
0001d0 88 42 a5 3d fa 44 e4 bd 1c cb 10 be 29 15 75 3d
       0.080693305 -0.11145969 -0.1413998 0.059834633
0001e0 a7 9e 1a bd d9 53 03 3e 72 1a a1 3c 34 61 74 3d
       -0.03774896 0.12824954 0.01966593 0.059663013
0001f0 b8 75 80 bd 40 6f b3 bd 0b b5 8e bd 7c 3d ee bc
       -0.06272453 -0.08761454 -0.06968125 -0.029082052
000200 17 ce 0e be 06 0b 0a bd 41 01 fb 3d 27 d8 06 be
       -0.13945805 -0.03370192 0.122560985 -0.13168393
000210 ae 13 18 be 2f 55 26 be b6 b7 0b be 60 22 fe bc
       -0.14851257 -0.16243432 -0.13644299 -0.03102225
000220 a3 4e 22 3e 18 74 d9 3d 7c d7 1e 3d 52 72 59 bc
       0.1585031 0.10617846 0.03877972 -0.013271885
000230 cc f2 04 be b5 0f f4 bd 9c 5a d0 3d 27 fb 11 bc
       -0.12983245 -0.119170584 0.10173532 -0.008909977
000240 c9 a0 35 bd 02 57 11 bd f9 61 46 3d 0a 4a 36 bd
       -0.04434279 -0.035483368 0.048433278 -0.044504203
000250 ea 73 ff bb 57 24 e7 bc f6 5c c1 3d 66 d7 d6 3d
       -0.0077958005 -0.02821557 0.09441559 0.10490303
000260 53 8d ca bd 2a 58 5b bd d9 03 0f 3e 05 22 46 3c
       -0.09890237 -0.053550877 0.13966312 0.012093072
000270 23 92 92 bd d8 ec a9 3d 86 8b e7 bb ad b6 ee bd
       -0.071567796 0.082971275 -0.007066193 -0.116559364
000280 43 26 37 3e 2b 38 3e 3e 2d e2 da bd 9e b6 08 bd
       0.1788569 0.18576114 -0.10687671 -0.033377282
000290 80 99 fc 3c a6 5e b4 3b be d0 4c 3d fd 28 5a bd
       0.030834913 0.005504447 0.05000376 -0.053261746
0002a0 94 18 b1 bd d8 9c f2 3d c6 84 fe bd 3e 01 8c bc
       -0.08647266 0.11846322 -0.12427668 -0.017090436
0002b0 6c 0e 38 be 6f 57 03 be 4c df 40 3d 84 f1 0e 3e
       -0.17974252 -0.12826322 0.047087952 0.13959318
0002c0 bd 3b 15 be 55 4c 3c 3e c1 13 52 bd ac aa 41 be
       -0.1457357 0.18388493 -0.05128837 -0.18912762
0002d0 ea 98 06 be 12 c8 6c bd 6a 67 94 3d 0a e1 1f 3d
       -0.1314427 -0.05780799 0.07246287 0.039032973
0002e0 4f 96 d2 3a a9 1c b4 3d 48 4e c8 3d 2a 1f 18 3e
       0.0016066524 0.08794529 0.09780556 0.14855638
0002f0 2d 8c 88 3d 8f 34 e3 3c 9a 6a 41 3d e8 c8 16 be
       0.066673614 0.027735023 0.047220804 -0.14725077
000300 4f d9 f1 bd 06 dc 82 bd 8e e8 90 bd fe 75 f9 bd
       -0.118090264 -0.063896224 -0.07075606 -0.12180708
000310 2b af 71 bd a8 47 0f 3e e6 04 ce 3d 0f 3c 81 bc
       -0.059004944 0.13992178 0.10059528 -0.015775708
000320 4d 7c 84 3d 72 44 1a 3e d0 f1 21 be 4b cc a9 ba
       0.06469021 0.15065172 -0.158149 -0.0012954561
000330 d9 aa 99 3d bf 8a 09 be 92 e9 3c be 3a 0b 2a 3e
       0.0750329 -0.13431834 -0.18448475 0.16605845
000340 e5 6c 9c 3d 43 37 b8 bd b2 aa 55 3d bb 7f 80 bb
       0.076379575 -0.08994915 0.05216474 -0.0039214767
000350 11 2e a1 3d c6 ba 0d be da bb e1 bd 4c 09 8f bd
       0.078701146 -0.1384078 -0.11022158 -0.06984195
000360 02 63 25 bb 7b f8 d6 bc 22 6b 15 3e da 08 cf bd
       -0.0025236015 -0.026241532 0.14591649 -0.1010911
000370 9b aa 0d be c3 6c ca 3d 58 92 ff bd 1b b2 a1 bd
       -0.13834612 0.09884026 -0.12479085 -0.07895299
000380 bf b0 85 3b 19 68 79 3d 09 eb 8e 3d 37 1b 18 be
       0.0040799077 0.06089029 0.06978423 -0.14854132
000390 72 e0 fd 3d 2a e4 cc 3c a1 f1 02 3e e7 a7 3b bd
       0.12396325 0.02501114 0.12787487 -0.04581442
0003a0 2f c4 31 3e 9e f8 bf 3d ae d5 53 bc 2a e8 23 be
       0.17359994 0.09373592 -0.012929363 -0.16006532
0003b0 02 0f 11 bd 16 bb 90 bd 28 ff fc 3d 18 34 f6 3d
       -0.035414703 -0.07066934 0.12353355 0.12021655
0003c0 ab 4f 4e bb 9d e2 26 be ac 5a 28 be 40 eb f3 3c
       -0.0031480591 -0.16297384 -0.16440839 0.029775262
0003d0 76 8e 4c be 93 a5 0e 3e e4 10 02 3d e0 24 48 be
       -0.1997622 0.13930349 0.03175439 -0.19545317
0003e0 a3 dd 92 bd d9 5d 67 bd 7b c1 20 be f0 e7 2c 3e
       -0.0717118 -0.056485984 -0.15698807 0.16885352
0003f0 7b fd 15 be 63 48 14 3e 99 06 aa bd ee 21 47 bd
       -0.14647476 0.14480738 -0.0830204 -0.048616342

hidden_layer2.bias f4 [4]
000000 bc b0 d9 3b e3 84 a1 3d fb 22 27 3d 84 6f 00 bd
       0.006643383 0.07886674 0.040804844 -0.03135635
